HW6/state_dict.pt (torch, 549794 bytes, 26 tensors)

model.h0-0.weight f4 [32, 4]
0	0xbda8ea95	-0.08247868
1	0xbece7bc3	-0.40328798
2	0xbeea7eac	-0.45799768
3	0x3ed457f5	0.41473356
4	0x3db39334	0.08768311
5	0x3e2985ad	0.165549
6	0x3ec99bcb	0.39376673
7	0xbdc81113	-0.09768882
8	0x3d1e7de3	0.038694274
9	0xbea9b65b	-0.3314694
10	0x3e103525	0.14082773
11	0x3e36d503	0.17854695
12	0x3deee9fc	0.11665723
13	0xbeb882e8	-0.36037374
14	0x3e8a0faf	0.2696509
15	0xbe163891	-0.14670016
16	0x3e90d584	0.282879
17	0x3ed5cd45	0.4175817
18	0xbe83b938	-0.25727248
19	0x3eb9cfca	0.36291343
20	0x3d0f9d1a	0.035061933
21	0x3c8d0cf7	0.017218096
22	0xbd66be4f	-0.056333836
23	0xbec3730c	-0.3817371
24	0x3e410286	0.18848619
25	0xbebbc33e	-0.36672395
26	0xbd67c62e	-0.056585483
27	0x3e4d8040	0.20068455
28	0x3e13a32f	0.14417718
29	0x3e80aceb	0.25131926
30	0x3e995eff	0.2995529
31	0xbeee260a	-0.46513397
32	0xbddbbd6a	-0.10729487
33	0xbe864d9a	-0.2623108
34	0xbdb56446	-0.08857016
35	0x3ecf7281	0.40517047
36	0x3c861899	0.016369151
37	0x3e5411fa	0.20709983
38	0xbe533535	-0.20625766
39	0xbe0b72b7	-0.13617979
40	0xbea46331	-0.32106927
41	0xbe3aa4ab	-0.18226878
42	0xbecd3bd1	-0.400847
43	0x3dfcf574	0.12351504
44	0xbde3bbd1	-0.111198075
45	0x3e95b4b5	0.2923943
46	0xbc165500	-0.009175539
47	0x3e22515e	0.15851352
48	0x3efc40d7	0.4926822
49	0xbba5d021	-0.0050602113
50	0x3e9261aa	0.28590137
51	0xbe8e9df1	-0.27854875
52	0x3e94221b	0.2893227
53	0xbee25165	-0.44202724
54	0x3e9d71c0	0.30750847
55	0xbde81608	-0.11332327
56	0xbef2949c	-0.47379005
57	0xbe9289bd	-0.2862071
58	0x3f007f0a	0.50193846
59	0xbef37ebc	-0.47557628
60	0xbe6c0636	-0.23049244
61	0xbecb328c	-0.39687002
62	0xbec24ab1	-0.3794761
63	0x3e5e234d	0.21693154
64	0xbec76d6c	-0.3895067
65	0x3eb6ebf9	0.35726908
66	0x3e6f1f69	0.23351826
67	0xbeb3b52f	-0.3509917
68	0xbd64f18b	-0.055894416
69	0x3d68ef59	0.056868885
70	0x3ca66c0a	0.020315189
71	0xbefbe31e	-0.49196714
72	0x3edcea86	0.43147677
73	0x3ebd2fb7	0.36950466
74	0xbeebc3ba	-0.46047765
75	0xbccdfb79	-0.025144326
76	0xbcb955eb	-0.022623977
77	0x3dd6e4f4	0.10492888
78	0x3c0226dd	0.007943836
79	0xbef2771d	-0.473565
80	0xbdd32ab1	-0.10310877
81	0xbe7ad7b7	-0.24496351
82	0xbdfa8b0a	-0.12233551
83	0xbed7442e	-0.42044204
84	0x3e0d3721	0.13790561
85	0xbec82892	-0.39093453
86	0xbc2beb7b	-0.010493155
87	0xbdf43ccf	-0.11925661
88	0xbd898f90	-0.067168355
89	0x3edd30ee	0.43201393
90	0xbebc32ca	-0.367575
91	0xbe8f1f81	-0.27953723
92	0x3c884590	0.016634732
93	0xbe23d292	-0.15998295
94	0xbd999bd5	-0.07500426
95	0xbec8016c	-0.39063585
96	0xbef93ef6	-0.48680848
97	0x3e7c6a3d	0.24649902
98	0xbe647d6e	-0.22313473
99	0x3eaed172	0.3414417
100	0x3eb0e27e	0.345478
101	0xbe68aa85	-0.22721298
102	0x3d4b7909	0.049675975
103	0xbe4d2ca5	-0.20036562
104	0x3de9fb3d	0.11424873
105	0xbeb49f3e	-0.35277742
106	0xbeeee839	-0.46661547
107	0x3e2f28df	0.17105435
108	0xbe4b7e99	-0.19872512
109	0xbe74a39d	-0.23890539
110	0x3ea5143f	0.3224201
111	0x3e60dc0b	0.2195894
112	0xbef4def9	-0.47826365
113	0x3ef3f83a	0.4765032
114	0xbe105371	-0.1409433
115	0xbe92b477	-0.2865331
116	0xbd627809	-0.055290256
117	0xbef94726	-0.48687094
118	0xbe39f416	-0.18159518
119	0x3eab728a	0.33485824
120	0x3dce4479	0.10071654
121	0xbeb7d149	-0.3590186
122	0x3ede420f	0.43409774
123	0xbe9bd8be	-0.304388
124	0xbed816af	-0.42204806
125	0x3dd7830e	0.105230436
126	0xbd11025a	-0.035402633
127	0x3ebb5c6e	0.36593956

model.h0-0.bias f4 [32]
0	0xbedf8537	-0.43656322
1	0xbe2e5ccd	-0.17027588
2	0xbe817026	-0.25280875
3	0xbe4314d4	-0.19050914
4	0x3e973856	0.29535168
5	0xbed03490	-0.40665102
6	0x3cce24a9	0.025163965
7	0xbd1cd791	-0.038291518
8	0x3db9eb95	0.09078137
9	0x3d4b8fe9	0.04969779
10	0xbdcc6c32	-0.09981574
11	0x3e8e816c	0.27833116
12	0xbd7f0975	-0.06226488
13	0x3ccf9c9c	0.025343232
14	0x3dac1bba	0.08403726
15	0xbedbfc45	-0.42965904
16	0x3e8f53ca	0.27993613
17	0x3ebfa84c	0.37433088
18	0x3ea746c6	0.32671183
19	0x3ea97120	0.3309412
20	0x3d03efe2	0.032211192
21	0x3ee574c2	0.44815642
22	0x3f02cd13	0.5109417
23	0xbe47c9e3	-0.19510607
24	0xbecb54fa	-0.3971327
25	0x3e41fc96	0.1894401
26	0xbd9771dc	-0.07394764
27	0x3bf37c25	0.0074305707
28	0xbd52a6cf	-0.051428612
29	0xbec10791	-0.37701085
30	0x3dd84694	0.10560337
31	0xbe27089a	-0.16311875

model.c0-0.weight f4 [32, 4]
0	0xbeeeefbc	-0.46667278
1	0xbefb61e2	-0.49098116
2	0xbe1138fb	-0.14181893
3	0x3e1526de	0.14565608
4	0x3ee42b9e	0.44564527
5	0x3e8b3380	0.2718773
6	0xbebaa6b5	-0.36455312
7	0x3eb883cd	0.36038056
8	0x3ea33117	0.3187339
9	0xbe9f5fd5	-0.31127802
10	0x3eaa019c	0.33204353
11	0xbf00d6f1	-0.50327975
12	0x3eb76e57	0.3582637
13	0xbef898ac	-0.4855398
14	0xbec372ff	-0.38173673
15	0x3eb1126b	0.34584364
16	0x3d6953b9	0.05696461
17	0x3e922c0b	0.28549227
18	0xbecbfaae	-0.3983969
19	0xbe5a8198	-0.21338499
20	0x3eb74e1e	0.35801786
21	0x3ed1c92a	0.40973788
22	0x3dd13336	0.10214846
23	0x3e383c90	0.17991853
24	0x3dbe1311	0.092809804
25	0x3cdc92ad	0.02692541
26	0xbed37c3c	-0.4130572
27	0x3ede4938	0.43415236
28	0x3ec8ea48	0.39241242
29	0x3eb06deb	0.3445886
30	0xbd28ab98	-0.04117927
31	0xbe3c93b4	-0.1841572
32	0xbea37e4d	-0.31932297
33	0x3d9213d5	0.07132689
34	0x3ccba089	0.024856823
35	0xbe44f901	-0.19235612
36	0x3e3098d2	0.17245796
37	0xbdbc5241	-0.09195376
38	0x3edc5ff0	0.43041945
39	0xbe73d682	-0.23812297
40	0xbe5181a1	-0.20459606
41	0x3e2449c3	0.16043763
42	0xbe7b4864	-0.24539334
43	0xbee0ac86	-0.43881625
44	0x3ec909d1	0.39265302
45	0x3ecfc663	0.40581045
46	0xbe08cba9	-0.1335894
47	0x3e940962	0.2891341
48	0xbe508958	-0.20364892
49	0x3c124eb3	0.008929896
50	0x3da8670b	0.08222779
51	0x3c983f6b	0.018584928
52	0x3dad2498	0.08454245
53	0x3dd455e1	0.103679426
54	0xbee938ee	-0.45551246
55	0xbeec5f71	-0.46166566
56	0xbed34a85	-0.4126779
57	0x3ed80664	0.42192376
58	0x3f04cf22	0.5187856
59	0xbd8a6b82	-0.06758787
60	0xbec12555	-0.37723795
61	0x3e32b4d7	0.17451797
62	0xbdc077bc	-0.093978375
63	0xbeef924b	-0.467913
64	0xbeebe1fb	-0.46070847
65	0x3e5aec2d	0.21379156
66	0x3ea936b2	0.33049542
67	0xbf000185	-0.5000232
68	0x3ed283e5	0.41116253
69	0x3ddb54a2	0.10709502
70	0xbf021377	-0.5081095
71	0xbee98bc8	-0.45614457
72	0x3df6822e	0.120365486
73	0x3db93c39	0.0904469
74	0x3df57e82	0.1198702
75	0x3ef8c166	0.4858505
76	0xbc467487	-0.012112743
77	0xbefb82d6	-0.49123257
78	0x3e724e54	0.23662692
79	0x3e64f180	0.2235775
80	0xbdb36696	-0.08759801
81	0xbe82386c	-0.2543367
82	0x3e98391a	0.29731065
83	0x3e38c24f	0.18042873
84	0xbef54435	-0.479036
85	0xbebcb60a	-0.36857635
86	0x3ea127d9	0.31475714
87	0x3e8204a0	0.25394154
88	0xbec9f15e	-0.3944196
89	0xbea9315b	-0.33045468
90	0x3f04eef1	0.51927096
91	0x3ea207da	0.31646615
92	0xbe09fd5a	-0.13475552
93	0x3e081a91	0.13291384
94	0x3dd63d59	0.1046092
95	0xbec30c7e	-0.38095468
96	0xbe8e2212	-0.2776037
97	0xbe2fb7bc	-0.17159933
98	0xbe21b23e	-0.1579065
99	0x3e811951	0.25214627
100	0x3efe34fd	0.49649802
101	0xbe79c815	-0.24392731
102	0xbeaa6423	-0.33279523
103	0x3cb0f6fd	0.021602148
104	0x3e39cfd5	0.18145688
105	0x3e56d9cf	0.20981525
106	0xbed9acaf	-0.4251456
107	0xbe5d53b6	-0.21613964
108	0x3e8cea70	0.27522612
109	0x3f071845	0.5277141
110	0xbe776907	-0.24161159
111	0x3e4abe78	0.1979922
112	0x3daa602a	0.08319123
113	0x3e7e02c1	0.24805738
114	0xbf015044	-0.505131
115	0x3f052908	0.52015734
116	0xbe492b2a	-0.19645372
117	0x3e694f9f	0.2278428
118	0x3ea4914d	0.32142106
119	0x3c87836b	0.016542157
120	0xbe3734ff	-0.1789131
121	0xbeb4ff88	-0.35351205
122	0x3da7207c	0.08160493
123	0xbeff4575	-0.4985768
124	0x3eca006e	0.39453453
125	0x3ec6a088	0.3879435
126	0xbe9f98d9	-0.311713
127	0x3eecd54b	0.4625648

model.c0-0.bias f4 [32]
0	0x3efe57c0	0.49676323
1	0x3e067824	0.13131768
2	0x3e95a4a1	0.29227164
3	0x3ce609a3	0.028080767
4	0x3e597fbf	0.21240138
5	0x3e9410f2	0.28919178
6	0xbdbba243	-0.09161808
7	0x3e365487	0.17805682
8	0xbeeede3d	-0.4665393
9	0x3e0b6775	0.13613684
10	0x3ee87b92	0.45406777
11	0xbebfcd4f	-0.37461326
12	0x3e69272a	0.22768846
13	0xbe7b8373	-0.24561863
14	0xbe0ed6ad	-0.1394908
15	0x3e7f327b	0.249216
16	0x3e8893c6	0.26675242
17	0xbdb8729b	-0.09006234
18	0x3e3df7cf	0.18551563
19	0xbdb8f39b	-0.09030839
20	0x3eb1e1ba	0.34742528
21	0xbe4677af	-0.19381593
22	0xbeada986	-0.339184
23	0xbea3471b	-0.31890187
24	0x3c335cb9	0.0109474
25	0xbc1645ce	-0.009171916
26	0x3e0ad759	0.13558711
27	0xbd328b5d	-0.04358994
28	0x3e5eac7f	0.2174549
29	0xbc37ec5b	-0.011225785
30	0xbd85ffed	-0.065429546
31	0xbe435f1e	-0.19079253

model.cell-0.weight_ih f4 [128, 17]
0	0x3e09c268	0.13453066
1	0xbd9be6f1	-0.07612408
2	0x3b27214f	0.0025502031
3	0xbd18ba27	-0.037286904
4	0xbc81ce22	-0.015845362
5	0x3dd5abb2	0.10433139
6	0x3de6e584	0.112742454
7	0x3c8b89d0	0.017033488
8	0xbd0601eb	-0.032716673
9	0x3e224452	0.15846375
10	0xbdabd450	-0.08390105
11	0x3d578e3b	0.052625876
12	0xbdbc5782	-0.09196378
13	0x3e1fd15f	0.15607212
14	0x3d12c07a	0.03582809
15	0x3cedfbbf	0.029050706
16	0xbe379a7c	-0.17930025
17	0xbd084a10	-0.033273757
18	0xbcf6a18b	-0.030106327
19	0xbca538f2	-0.020168755
20	0xbe2d4604	-0.1692124
21	0x3cb3eabd	0.021962518
22	0xbe406a22	-0.18790486
23	0xbe105fc0	-0.14099026
24	0x3d91da2b	0.0712169
25	0xbdb1c050	-0.08679259
26	0xbd90da25	-0.07072858
27	0xbdbf6ffe	-0.09347533
28	0x3dc0cb26	0.094137475
29	0x3e044c96	0.1291984
30	0x3ddeefd7	0.108855896
31	0x3d2ce7b0	0.042213142
32	0x3d1e9d61	0.038724307
33	0x3cbdc81f	0.023166714
34	0xbe4606d7	-0.19338547
35	0x3dcaf7c0	0.09910536
36	0x3bfa81cf	0.007644869
37	0xbe2610b3	-0.16217308
38	0xbc80b4a7	-0.015711142
39	0xbd6bfc61	-0.057613734
40	0x3bd2a0ba	0.0064278515
41	0x3dc2b413	0.09507003
42	0x3dd629a1	0.10457159
43	0x3d072126	0.032990597
44	0xbe2f5e6f	-0.17125867
45	0x3e2e6fd8	0.17034853
46	0xbcee2fb4	-0.029075481
47	0x3e255880	0.16147041
48	0x3e22f38a	0.15913215
49	0xbd7c39c3	-0.061578523
50	0x3decd9ee	0.11565004
51	0x3ca92b1e	0.020650443
52	0x3cd84529	0.026400166
53	0x3dc3affd	0.095550515
54	0xbd120cd9	-0.035656784
55	0x3bd49e9d	0.0064886347
56	0xbe20de42	-0.15709785
57	0x3d324074	0.0435185
58	0xbcbd017d	-0.023071999
59	0xbb2208f4	-0.0024724575
60	0xbdd2c91d	-0.102922656
61	0x3de60f58	0.11233395
62	0x3e028627	0.12746488
63	0x3d5f0e20	0.05445683
64	0xbd11dbdf	-0.035610076
65	0xbdbe935c	-0.0930545
66	0x3d193c40	0.037410975
67	0xbdb8571f	-0.09000992
68	0x3d5fb67c	0.05461739
69	0xbd50c674	-0.05097051
70	0x3dfd42cd	0.12366257
71	0xbe0239a6	-0.12717304
72	0xbde462c4	-0.111516505
73	0xbc886a73	-0.016652321
74	0xbc684f8c	-0.014179122
75	0xbd90fd4a	-0.07079561
76	0xbe1b20d5	-0.15149243
77	0x3daea016	0.08526628
78	0x3e10702d	0.14105292
79	0xbd98d1f2	-0.07461919
80	0xbdeaf607	-0.11472707
81	0x3ca1978e	0.019725587
82	0xbdb8f585	-0.09031204
83	0x3e09de4e	0.13463709
84	0x3d69fdf9	0.057126973
85	0xbe4d618b	-0.20056741
86	0xbcb383b6	-0.02191339
87	0x3e3147c5	0.17312534
88	0x3db70909	0.0893727
89	0x3c33b9d1	0.010969595
90	0xbe1eab85	-0.15495117
91	0x3e0e064b	0.13869588
92	0xbdd317e6	-0.10307293
93	0xbd87bf06	-0.06628232
94	0x3e0b787b	0.13620178
95	0x3d6598e2	0.056054004
96	0x3cda31ee	0.026635136
97	0x3db1338c	0.0865241
98	0xbdfb7a7b	-0.12279221
99	0xbd809162	-0.062777296
100	0xbdeb002c	-0.11474642
101	0xbbf33046	-0.007421526
102	0xbc8b7559	-0.01702373
103	0xbc12b04e	-0.008953167
104	0xbe18b80d	-0.1491396
105	0xbdc08930	-0.094011664
106	0xbbc5a0bb	-0.0060311235
107	0x3e12244f	0.14271663
108	0x3e1c117a	0.15241042
109	0x3daeb170	0.08529937
110	0xbe2bdd95	-0.16783746
111	0xbe2462b8	-0.16053283
112	0xbd98db92	-0.07463755
113	0x3dcd38d4	0.10020605
114	0xbd95c869	-0.07313616
115	0xbde5f942	-0.11229183
116	0xbc50bb91	-0.012740032
117	0x3e23c02e	0.1599128
118	0xbd5aba12	-0.053400107
119	0xbd979911	-0.07402242
120	0xbd6d882d	-0.057991195
121	0x3def9aa1	0.11699415
122	0x3e08fc5f	0.13377522
123	0xbe30df02	-0.1727257
124	0xbe22db28	-0.15903914
125	0xbde6622f	-0.11249196
126	0x3de867d5	0.113479294
127	0xbc6bab54	-0.0143841095
128	0xbc1aec32	-0.009455727
129	0xbe215ce7	-0.15758096
130	0xbd3865ba	-0.04501889
131	0x3d52e5c2	0.051488645
132	0x3da113ea	0.078651264
133	0x3da34179	0.07971472
134	0xbe20c1de	-0.15698954
135	0xbdfd3e83	-0.12365439
136	0xbd8f61b6	-0.07001059
137	0xbe1dd9ef	-0.15415166
138	0x3d8e501d	0.06948874
139	0x3da2d2be	0.07950352
140	0x3dd8f946	0.1059442
141	0xbb140cb2	-0.0022590575
142	0x3dbb27d0	0.09138453
143	0x3b778bb2	0.0037772474
144	0x3dbeaa43	0.093098186
145	0xbdb83ffb	-0.08996578
146	0xbdb8df39	-0.09026951
147	0x3e16288d	0.14663906
148	0x3d983d9b	0.07433625
149	0xbda31f2d	-0.07964931
150	0xbce3427a	-0.02774166
151	0xbd57005b	-0.052490573
152	0xbd8cc922	-0.068743005
153	0xbe702ae6	-0.23453864
154	0xbe1a7c10	-0.15086389
155	0xbd474911	-0.048653666
156	0x3ddb8617	0.10718935
157	0x3d2e754a	0.042592324
158	0x3da35e0a	0.07976921
159	0xbe236e2b	-0.15959994
160	0x3cae871e	0.021304663
161	0xbe222f90	-0.15838456
162	0x3cdc7076	0.026909094
163	0xbe3d8c4f	-0.18510555
164	0xbe473060	-0.19452047
165	0xbe501b3f	-0.20322894
166	0x3dc1174e	0.09428273
167	0xbe38183a	-0.17977992
168	0xbd89c369	-0.06726725
169	0xbe62a22f	-0.2213218
170	0xbd48a0a8	-0.04898134
171	0x3e2f4e74	0.17119771
172	0xbde73467	-0.11289292
173	0xbddef68e	-0.1088687
174	0x3d95dae1	0.073171385
175	0xbe3db78b	-0.18527047
176	0xbe157382	-0.14594844
177	0x3c8f458e	0.017489221
178	0xbdf5983c	-0.11991927
179	0xbe2ad27f	-0.1668186
180	0xbe27d09f	-0.16388176
181	0xbdd7b2a7	-0.10532122
182	0xbc755dae	-0.014975948
183	0xbd700a0c	-0.05860333
184	0xbe324229	-0.1740805
185	0xbdc6221c	-0.096744746
186	0x3e191d62	0.14952615
187	0xbde08c9a	-0.109643176
188	0x3d1c81f9	0.03820989
189	0x3cfdfbee	0.031003918
190	0x3ceb3aca	0.028714556
191	0x3dc7b056	0.0975043
192	0xbe231a58	-0.15928018
193	0xbd872c22	-0.066002145
194	0x3ddb491f	0.10707306
195	0xbe423727	-0.18966351
196	0xbd0ceb48	-0.03440407
197	0x3c80e83f	0.015735744
198	0xbe2000c9	-0.156253
199	0xbd400bb5	-0.046886165
200	0x3dfd90e0	0.12381148
201	0x3de4835d	0.11157868
202	0x3e04884a	0.12942615
203	0x3de68b38	0.112570226
204	0x3dcdcf5e	0.10049318
205	0x3d1becc1	0.038067583
206	0xbb7c6b38	-0.0038516056
207	0xbcce70bb	-0.025200238
208	0xbc339db0	-0.010962889
209	0xbc4d9a51	-0.012548999
210	0xbb857748	-0.0040730573
211	0xbe05d9a3	-0.13071303
212	0x3db8eed5	0.090299286
213	0xbdf8a741	-0.12141276
214	0x3d239131	0.039933387
215	0x3d63c0db	0.055603843
216	0x3e2ed757	0.17074333
217	0x3da529f7	0.08064645
218	0x3d904b99	0.07045669
219	0xbe2190ff	-0.15777968
220	0x3e0dc759	0.13845576
221	0xbd9f7493	-0.07785907
222	0xbd4f3684	-0.0505891
223	0xbdfadf4c	-0.12249622
224	0x3c880c75	0.016607502
225	0xbd8f1eaf	-0.06988274
226	0x3e2a52e8	0.16633189
227	0xbdde3098	-0.10849112
228	0x3db4971d	0.08817885
229	0x3e2110f4	0.15729123
230	0xbe29ba43	-0.1657496
231	0xbd242362	-0.040072806
232	0xbde88e00	-0.11355209
233	0x3e1c347d	0.15254398
234	0xbe06f07b	-0.13177674
235	0x3d6b8c0a	0.0575066
236	0x3d20a904	0.039223686
237	0xbe3a08eb	-0.18167464
238	0x3d74b913	0.059746813
239	0x3db958d6	0.09050147
240	0x3d4f4070	0.05059856
241	0x3def6dba	0.116908506
242	0xbe202bf4	-0.15641767
243	0x3e213f34	0.15746766
244	0x3e067291	0.13129641
245	0x3dd5f282	0.10446645
246	0xbe298781	-0.16555597
247	0xbab1f6b4	-0.0013577552
248	0xbc8d96b1	-0.01728377
249	0x3d201696	0.03908404
250	0x3e26b0d6	0.16278395
251	0xbdaf1834	-0.08549538
252	0x3de287c5	0.11061052
253	0xbdcf7ca8	-0.10131198
254	0xbdbb5f49	-0.091490336
255	0x3e2493a8	0.16071951

model.cell-0.weight_hh f4 [128, 32]
0	0x3bfce507	0.007717732
1	0xbe3cfd97	-0.18456112
2	0x3e28715b	0.16449492
3	0x3d63cfff	0.055618282
4	0x3d93dd5b	0.072199546
5	0x3e2d99c5	0.1695319
6	0x3caa47d7	0.020786209
7	0x3c2ec75d	0.010667649
8	0x3e2f4a83	0.17118268
9	0x3dda4a0d	0.10658655
10	0xbcbf7c6f	-0.023374764
11	0xba5cbbfd	-0.00084203464
12	0x3d106eb8	0.03526184
13	0x3e163e4b	0.146722
14	0xbc99dc2b	-0.018781742
15	0x3deb148d	0.11478529
16	0x3d9f2d8a	0.07772358
17	0xbb8438fd	-0.004035114
18	0xbe31bc40	-0.17356968
19	0x3d002d29	0.031293068
20	0xbcca6163	-0.02470464
21	0x3db2568a	0.08707912
22	0x3d861209	0.06546409
23	0xbb2bc1b5	-0.0026207988
24	0x3e1267eb	0.14297454
25	0x3dfb88af	0.1228193
26	0xbca1e4e8	-0.019762471
27	0xbe0960e4	-0.13415867
28	0x3de7945c	0.11307594
29	0xbc16f76a	-0.009214262
30	0x3d8c69b1	0.068560965
31	0x3cdba3f2	0.026811574
32	0xbcac48a9	-0.02103074
33	0x3d7cc34e	0.061709695
34	0xbdc37313	-0.09543433
35	0x3c5a22e9	0.013313987
36	0xbdd66f55	-0.10470454
37	0x3dc61f3b	0.096739255
38	0xbdd61d5a	-0.10454817
39	0xbe22c998	-0.15897214
40	0xbe18b0ab	-0.14911143
41	0xbdb82d99	-0.08993072
42	0x3cd869de	0.026417669
43	0x3c2ebc0a	0.010664949
44	0xbe1ffc63	-0.15623622
45	0x3e1e149e	0.15437552
46	0x3e0fb439	0.14033593
47	0xbce1baf2	-0.027554963
48	0x3e5f82a2	0.21827176
49	0xbcbfedb3	-0.023428774
50	0x3c983c88	0.018583551
51	0xbe2b9025	-0.16754206
52	0xbd40d298	-0.047075838
53	0x3d03dc16	0.032192312
54	0x3d17efdf	0.037093993
55	0xbcd31809	-0.025768297
56	0xbd150512	-0.03638179
57	0xbd4fe508	-0.05075553
58	0xbd2c3d17	-0.042050447
59	0x3d799044	0.060928598
60	0xbd3db8bd	-0.04631876
61	0x3d5d4d07	0.054028537
62	0xbdaa49fe	-0.08314894
63	0xbe1ba0ea	-0.15198103
64	0x3e08e517	0.13368641
65	0xbda59aea	-0.08086188
66	0x3de61d6d	0.11236081
67	0x3d9dc2b6	0.07703154
68	0x3e2a3484	0.16621596
69	0xbd8c6e98	-0.068570316
70	0x3d1dd1e5	0.03853025
71	0x3e16704d	0.14691277
72	0x3e24c787	0.16091739
73	0xbe656f7a	-0.22405806
74	0xbdc5f36e	-0.09665571
75	0x3ac7b1fa	0.0015235536
76	0x3cfe8429	0.031068878
77	0xbb82772c	-0.0039814916
78	0xbc4c2616	-0.012460252
79	0x3cae6bc8	0.021291628
80	0x3e1507a2	0.14553693
81	0xbd0c7224	-0.03428854
82	0xbe4bd973	-0.19907169
83	0x3d554aca	0.052073278
84	0xbd6664d0	-0.056248486
85	0xbe64151e	-0.2227368
86	0xbe45b4d8	-0.19307268
87	0x3e3922f5	0.18079741
88	0xbe645035	-0.22296222
89	0x3dc6b5de	0.09702657
90	0x3d229388	0.039691478
91	0x3d963c6e	0.07335745
92	0xbe113b4d	-0.14182778
93	0x3e348e67	0.17632447
94	0xbddd6272	-0.108097926
95	0xbc8ee18e	-0.017441537
96	0x3d14813a	0.036256053
97	0xbdcb6166	-0.09930687
98	0xbdd3a360	-0.10333896
99	0x3db06402	0.08612825
100	0x3dae0e42	0.08498813
101	0xbda88fac	-0.08230528
102	0xbd666a7c	-0.056253895
103	0xbe5b74b8	-0.21431243
104	0xbd7cde8c	-0.061735675
105	0x3dbdbd34	0.09264603
106	0x3e2277ab	0.15865962
107	0x3bb3c49d	0.0054860846
108	0xbc3fe91c	-0.011713292
109	0x3d6d09c8	0.057870656
110	0x3debe76a	0.11518748
111	0x3da9bb7c	0.08287713
112	0x3d2aff32	0.04174728
113	0xbe29449a	-0.16530076
114	0x3d393ec4	0.045225874
115	0xbe21ae41	-0.15789129
116	0x3d844e08	0.06460196
117	0xbde3b1eb	-0.111179195
118	0xbe25d284	-0.16193587
119	0x3e08b61d	0.1335072
120	0xbdf02e75	-0.11727611
121	0xbce4851b	-0.0278955
122	0x3dbe4fc0	0.09292555
123	0xbe4e7f84	-0.20165831
124	0x3e1633ed	0.14668246
125	0x3d409816	0.04702004
126	0x3d981298	0.074254215
127	0x3db7c073	0.08972254
128	0x3d9ffb61	0.078116186
129	0x3dddd713	0.10832038
130	0xbd179047	-0.037002828
131	0x3d878907	0.06617933
132	0xbe128bcb	-0.1431114
133	0xbbe83b36	-0.0070871366
134	0xbd4915d6	-0.04909309
135	0x3dffa618	0.12482852
136	0xbd7f56dd	-0.0623387
137	0xbcb624be	-0.022234317
138	0x3e2fcfbf	0.17169093
139	0x3e04a62e	0.12954018
140	0xbdc69658	-0.096966445
141	0x3d89b372	0.067236796
142	0x3e1b00aa	0.15136972
143	0xbcdfa487	-0.027300132
144	0x3c141ce7	0.009040094
145	0xbe06e97c	-0.13175005
146	0xbcb1e346	-0.021714818
147	0xbd82cef6	-0.06387131
148	0x3c25e8a5	0.010126268
149	0x3ae07531	0.001712477
150	0x3db7b117	0.08969324
151	0x3e0bb764	0.13644177
152	0xbe22265d	-0.15834947
153	0xbe1e14dd	-0.15437646
154	0xbd8368b5	-0.06416456
155	0xbd67f9d9	-0.056634758
156	0xbd045222	-0.03230489
157	0x3cbd9e34	0.023146726
158	0x3d3cfb21	0.046137933
159	0xbd6fb66d	-0.058523584
160	0x3e0a36cf	0.1349747
161	0x3e2f99b2	0.17148474
162	0x3d987090	0.074433446
163	0x3dd39f03	0.103330635
164	0x3d664163	0.0562147
165	0x3d76af4c	0.06022577
166	0xbd839e5b	-0.06426688
167	0x3e01d44e	0.12678644
168	0x3e169216	0.14704165
169	0x3e01498a	0.12625709
170	0xbe0796fd	-0.13241191
171	0xbcb49a2b	-0.02204617
172	0xbd226bfb	-0.03965376
173	0xbe20d74b	-0.15707128
174	0xbd2b449e	-0.041813485
175	0xbc92672c	-0.017871462
176	0x3d37e6a8	0.044897705
177	0xbd414986	-0.047189258
178	0xbd6c99c1	-0.05776382
179	0x3d6cac67	0.057781603
180	0xbd99b1d1	-0.07504619
181	0x3e77df4b	0.24206273
182	0x3d38298e	0.044961505
183	0xbdcedf85	-0.10101227
184	0xbe03ee64	-0.12883908
185	0xbe0134f1	-0.12617852
186	0x3e0cecfe	0.1376228
187	0xbde442b9	-0.11145539
188	0xbca1e511	-0.019762548
189	0x3b9cbe8f	0.0047834585
190	0x3e546572	0.20741823
191	0x3e2f7c3f	0.1713724
192	0xbdd21b07	-0.10259061
193	0xbda9ece6	-0.08297138
194	0xbe2030f2	-0.15643671
195	0xbe5cfb12	-0.2158015
196	0x3e00a88b	0.12564294
197	0x3df26ade	0.118367895
198	0xbd8600b5	-0.065431036
199	0x3e201ebd	0.15636726
200	0x3e10f1bf	0.14154719
201	0x3dfbb0a4	0.12289551
202	0xbd8aa6f8	-0.06770128
203	0xbdb466bf	-0.0880866
204	0x3d1fed22	0.039044507
205	0xbc8cd62b	-0.017191967
206	0xbd29ce73	-0.04145665
207	0x3dcffaf4	0.101552874
208	0xbd13154b	-0.03590898
209	0x3e305922	0.17221501
210	0x3e0b6ff6	0.13616928
211	0xbdd8fe5e	-0.10595392
212	0xbda852a2	-0.08218886
213	0xbdd0b46d	-0.101906635
214	0x3e6a31b4	0.22870523
215	0xbe47e786	-0.19521913
216	0x3d75401f	0.059875604
217	0xbdd67a24	-0.10472515
218	0xbc9a3591	-0.01882437
219	0xbdd6091a	-0.10450955
220	0x3e2cea3e	0.16886231
221	0xbdda6c0e	-0.10665141
222	0xbccde86a	-0.025135238
223	0xbdbf7c40	-0.09349871
224	0xbd86494d	-0.0655695
225	0xbde468de	-0.11152814
226	0x3d2ee5e9	0.04269973
227	0x3e022fb3	0.12713508
228	0xbd1dd8a7	-0.038536694
229	0x3def3b76	0.11681263
230	0xbe2f3ea2	-0.17113736
231	0xbdb75152	-0.089510575
232	0x3d94d146	0.07266478
233	0x3dd5ed72	0.1044568
234	0xbe57c309	-0.21070494
235	0x3dc2f6d7	0.09519737
236	0xbe0d8f4f	-0.13824199
237	0x3e2c356b	0.16817252
238	0xbde1310f	-0.10995685
239	0xbe2c74f3	-0.16841488
240	0x3d20e6e5	0.0392827
241	0xbd2a4ead	-0.041578937
242	0x3dcd8dd5	0.10036818
243	0xbb4590bb	-0.003014608
244	0xbd30474b	-0.04303674
245	0x3e1ab6f3	0.15108852
246	0xbda35311	-0.07974828
247	0xbe50c408	-0.2038728
248	0xbe309a01	-0.17246248
249	0x3cb77d72	0.022398684
250	0x3dbb1802	0.091354385
251	0xbdee3e38	-0.11632961
252	0xbd7ad92d	-0.06124227
253	0xbc1c290f	-0.0095312735
254	0x3d73d22c	0.059526607
255	0x3e1b07fa	0.15139762

model.cell-0.bias_ih f4 [128]
0	0xbdf982a9	-0.121831246
1	0xbe03b13c	-0.12860578
2	0x3cdfa631	0.027300926
3	0x3d3670f9	0.044541333
4	0x3db8c221	0.09021402
5	0xbd5fd8f8	-0.054650277
6	0xbd90dc5a	-0.07073279
7	0xbd2096d2	-0.039206333
8	0xbca6b8e5	-0.020351836
9	0xbda59d75	-0.08086673
10	0x3db31492	0.08744158
11	0x3cbd2d88	0.023093
12	0xbd8950e4	-0.06704882
13	0xbdb6e5b0	-0.08930528
14	0xbe0e95a7	-0.13924275
15	0x3df58523	0.119882844
16	0xbdfb43c7	-0.12268787
17	0x3d015720	0.03157723
18	0xbdb8ff85	-0.090331115
19	0xbe1a2e97	-0.15056835
20	0xbe0a150f	-0.13484596
21	0xbcb5e84d	-0.022205496
22	0x3d8a0fbd	0.06741283
23	0x3bfedc25	0.007777708
24	0x3d9f7841	0.077866085
25	0xbd9195db	-0.07108661
26	0xbdc31eef	-0.095273845
27	0xbc7d2271	-0.015450106
28	0xbdc28e25	-0.09499768
29	0x3e3a8339	0.1821412
30	0x3d8afede	0.06786893
31	0xbda45ff6	-0.080261156
32	0x397c4d40	0.0002406137
33	0xbda0fe91	-0.07861055
34	0x3cb728d3	0.022358334
35	0x3d3facac	0.046795532
36	0xbccfb668	-0.025355533
37	0x3e2799c3	0.16367249
38	0xbdf8bc67	-0.1214531
39	0x3d15e259	0.036592815
40	0x3e340372	0.1757944
41	0x3caa2970	0.020771712
42	0x3d592fd9	0.053024147
43	0xbc872298	-0.016495988
44	0x3d5252d4	0.051348522
45	0xbc5e5a62	-0.013571354
46	0x3d1df4b0	0.03856343
47	0x3d98d252	0.074619904
48	0x3e646517	0.22304188
49	0xbd53eefd	-0.05174159
50	0x3e091625	0.13387354
51	0xbd4a7ef3	-0.049437474
52	0x3c67bb6a	0.014143804
53	0x3d3842ba	0.04498551
54	0x3e2c7ed6	0.16845259
55	0x3e0df0f9	0.13861455
56	0xbe0db673	-0.1383913
57	0xbdcb9141	-0.09939814
58	0x3d1c513c	0.03816341
59	0xbd2bbaa0	-0.041926026
60	0x3e11b693	0.14229803
61	0x3e12c89d	0.1433434
62	0x3e1bb93e	0.15207383
63	0x3d850c73	0.06496515
64	0xbc339056	-0.010959705
65	0x3daa171e	0.083051905
66	0xbe354341	-0.17701437
67	0x3d5465fe	0.05185508
68	0xbe0c6468	-0.13710177
69	0x3d949391	0.072547086
70	0x3e209a24	0.156838
71	0x3cfb19ac	0.03065189
72	0x3df34180	0.118777275
73	0xbc9e4226	-0.019318651
74	0x3d4b28b1	0.049599353
75	0x3dcd73c7	0.100318484
76	0xbdf71b20	-0.120657206
77	0xbdd0f2d7	-0.10202568
78	0xbdf80c6f	-0.121117465
79	0xbe0c7a99	-0.13718642
80	0x3e0d81bd	0.13819022
81	0x3ce0cb04	0.027440555
82	0xbc21b97e	-0.009870885
83	0x3e1bdf28	0.15221846
84	0xbc9f1a78	-0.019421801
85	0x3e2903f3	0.16505413
86	0x3cd74aa4	0.026280709
87	0x3e14017f	0.14453696
88	0xbe0101d9	-0.12598361
89	0xb94dfdf7	-0.00019644933
90	0x3e0c6fb5	0.13714488
91	0x3dcaf370	0.09909713
92	0xbe146d0b	-0.14494722
93	0x3df08908	0.11744887
94	0x3d9e0a39	0.077167936
95	0xbb51bbe8	-0.003200287
96	0xbe29cb52	-0.16581467
97	0xbe139ff2	-0.14416483
98	0xbda967d0	-0.08271754
99	0xbc8ec717	-0.017428918
100	0xbe204afd	-0.15653606
101	0xbe1ac511	-0.15114237
102	0x3da1cde5	0.079005994
103	0xbdfea82f	-0.12434422
104	0x3d2ef158	0.042710632
105	0x3d750fd9	0.059829567
106	0x3d31efb1	0.04344148
107	0x3dbe9c19	0.09307117
108	0x3d0d9fcf	0.034576233
109	0x3d979d1b	0.07403012
110	0x3dcde3b2	0.10053195
111	0x3e183536	0.14864048
112	0x3daebd00	0.08532143
113	0xbe0155dd	-0.1263041
114	0x3d859b81	0.06523801
115	0x3e0207d2	0.12698296
116	0x3c563e59	0.013076388
117	0x3e463dd7	0.19359528
118	0xbde4e1d6	-0.11175887
119	0x3e012920	0.12613344
120	0x3e0dcc03	0.13847356
121	0xbd1db3c8	-0.03850153
122	0xbd0842e5	-0.03326692
123	0xbe180d4d	-0.14848824
124	0x3d7bc7ec	0.061469957
125	0xbddf4300	-0.10901451
126	0xbd90577b	-0.070479356
127	0x3def5ac7	0.11687236

model.cell-0.bias_hh f4 [128]
0	0xbe0bb278	-0.13642299
1	0x3dc9eb1a	0.09859295
2	0xbcee91ef	-0.029122321
3	0xbc16e9a6	-0.00921098
4	0xbd9a0728	-0.07520896
5	0x3e31dbf5	0.17369063
6	0xbb4f587e	-0.0031638439
7	0xbdc88efe	-0.097928986
8	0x3d507c5b	0.050899845
9	0xbbe87b25	-0.007094758
10	0xbdb6fec6	-0.08935313
11	0xbcea7856	-0.028621834
12	0x3dbec76a	0.09315379
13	0x3c940189	0.018067138
14	0x3d91a886	0.071122214
15	0x3df77760	0.12083316
16	0x3d41ebb2	0.047343917
17	0x3e2a0441	0.16603185
18	0xbde607bf	-0.11231946
19	0x3d758a27	0.059946205
20	0x3de24cb6	0.11049788
21	0x3ddfe3ba	0.10932107
22	0xbcbd7c51	-0.023130568
23	0x3d602106	0.054718994
24	0xbe166d11	-0.14690043
25	0xbdd09639	-0.10184903
26	0x3d7a877f	0.061164375
27	0x3dba8186	0.09106736
28	0x3dabc420	0.08387017
29	0x3d56c165	0.05243053
30	0xbe001ce7	-0.12511025
31	0x3de52f03	0.111906074
32	0xbdf8e42f	-0.121528976
33	0xbc483d33	-0.012221622
34	0xbdeed3cd	-0.116614915
35	0x3e138702	0.1440697
36	0x3b8c2762	0.0042771557
37	0xbe27584c	-0.16342276
38	0xbd1b99dc	-0.03798853
39	0x3d92bea2	0.071652666
40	0x3d943d08	0.07238203
41	0x3e258868	0.16165316
42	0x3e23ea73	0.16007404
43	0x3db273ac	0.08713469
44	0xbd100ee4	-0.03517045
45	0x3e054edb	0.13018362
46	0x3df38d67	0.11892205
47	0x3e07c680	0.13259315
48	0x3dce14e3	0.100625776
49	0x3ccfa5c5	0.0253476
50	0x3dec1937	0.11528247
51	0x3dfaac02	0.12239839
52	0x3e574b1a	0.21024743
53	0x3e07e050	0.13269162
54	0xbbac2401	-0.0052533154
55	0x3e123d81	0.14281274
56	0x3dbb4677	0.091442995
57	0x3d98c6f9	0.07459826
58	0xbdc5e739	-0.09663243
59	0xbdb6011f	-0.088869326
60	0xbcd2a1a6	-0.025711846
61	0xbe039e1d	-0.12853284
62	0xbd86f716	-0.06590097
63	0x3cdaeb78	0.026723608
64	0xbe159fe8	-0.1461178
65	0x3e1bc62b	0.15212314
66	0x3c205881	0.009786726
67	0x3e053eb7	0.13012205
68	0xbe04153c	-0.12898725
69	0x3d922f9b	0.07137986
70	0x3db93fb2	0.09045352
71	0x3d1591d6	0.036516033
72	0x3e09fe23	0.13475852
73	0x3dad6106	0.084657714
74	0x3e0916e6	0.13387641
75	0x3d8c2503	0.06842997
76	0x3d077e3c	0.03307937
77	0xbe01dd78	-0.1268214
78	0x3e21c339	0.15797128
79	0x3db68485	0.08911995
80	0xbdc676da	-0.09690638
81	0x3e2410e6	0.16022071
82	0x3e08c3c9	0.13355936
83	0xbdd7e45d	-0.10541604
84	0x3dd2094d	0.1025568
85	0xbcd72120	-0.026260912
86	0x3c4b7b67	0.012419558
87	0x3d9a1e31	0.0752529
88	0x3d1a0640	0.037603617
89	0x3dd3835a	0.10327788
90	0xbde90f85	-0.11379913
91	0xbcce97e9	-0.02521892
92	0x3cb58de2	0.022162382
93	0xbca8828f	-0.020570068
94	0xbcf0746b	-0.029352387
95	0x3ce5751d	0.028009946
96	0x3e167ea1	0.14696743
97	0x3cf93d71	0.030424805
98	0xbdfb9d32	-0.12285842
99	0xbe41a115	-0.18909104
100	0x3d7896f9	0.060690854
101	0x3c671330	0.014103696
102	0x3b6e0272	0.0036317375
103	0xbe29f42f	-0.16597055
104	0x3d429a20	0.047510266
105	0x3e334461	0.17506553
106	0xbe34e884	-0.17666823
107	0x3dd131dd	0.10214589
108	0xbd4f08cb	-0.050545495
109	0xbe0a336a	-0.13496175
110	0x3d5327ba	0.051551558
111	0x3e136b1a	0.14396325
112	0x3e3ed290	0.1863501
113	0xbb8cc651	-0.004296102
114	0x3d23a72e	0.039954357
115	0xbcbb0e6c	-0.022834025
116	0x3dcc4354	0.09973779
117	0x3e932c2c	0.28744638
118	0xbd5981e7	-0.0531024
119	0xbe0835df	-0.133018
120	0xbdc59816	-0.09648149
121	0xbe2f87c3	-0.17141633
122	0xbce3bd9c	-0.027800374
123	0xbde77cad	-0.11303077
124	0x3d8d1a2c	0.068897575
125	0x3e066db4	0.13127786
126	0x3d92a149	0.07159669
127	0xbdc03165	-0.09384421

model.h0-1.weight f4 [64, 4]
0	0xbe470bbd	-0.19438072
1	0xbd024f5e	-0.03181397
2	0xbe2f082f	-0.17092966
3	0x3e7e3228	0.2482382
4	0x3e50f704	0.20406729
5	0xbe942ae2	-0.28938967
6	0xbee6345a	-0.44961816
7	0xbecfe112	-0.40601403
8	0x3e0ae536	0.13564
9	0x3ef9ce9c	0.48790443
10	0x3e8c94a1	0.27457145
11	0x3e15c5aa	0.14626184
12	0x3e40db29	0.18833603
13	0x3ecd02f2	0.4004131
14	0x3e711146	0.23541746
15	0xbddcc340	-0.107794285
16	0x3e8b5fcb	0.27221522
17	0xbe97858e	-0.29594082
18	0x3e1a1689	0.15047659
19	0xbd6f3e49	-0.05840901
20	0x3ee3c73c	0.4448794
21	0x3dfe5457	0.1241843
22	0x3ea267d7	0.3171985
23	0xbde9b704	-0.114118606
24	0x3c0cc5a6	0.008592045
25	0x3eac669c	0.33672035
26	0xbc1083eb	-0.008820514
27	0x3dc91d12	0.09819998
28	0x3d5a90f2	0.053360887
29	0x3edfb632	0.43693691
30	0xbebf519e	-0.37366956
31	0xbe823887	-0.25433752
32	0xbdbf9337	-0.09354251
33	0x3eb2faac	0.34956872
34	0x3e281700	0.16415024
35	0x3ef8351f	0.48478028
36	0xbe922ce3	-0.2854987
37	0xbe6ffa6b	-0.2343537
38	0x3ee17374	0.44033396
39	0xbcbcca76	-0.02304576
40	0xbdd83314	-0.105566174
41	0xbca54436	-0.020174127
42	0x3e0803e3	0.13282733
43	0x3eee78db	0.4657658
44	0x3ebad8c7	0.36493513
45	0x3e843544	0.25821888
46	0xbe940ba1	-0.28915122
47	0xbee40899	-0.4453781
48	0x3e9ff118	0.31238627
49	0xbedb32f9	-0.42812327
50	0x3ebdf2b4	0.3709923
51	0xbe903c20	-0.28170872
52	0x3f01bdd3	0.50680274
53	0xbd824e94	-0.06362644
54	0xbea0d295	-0.3141066
55	0xbeb1fa9e	-0.34761518
56	0x3d7c498a	0.06159357
57	0x3c41cb9e	0.011828331
58	0x3dd8a851	0.10578979
59	0xbe1a91c5	-0.15094669
60	0x3e18ca9f	0.14921044
61	0x3d931a49	0.07182748
62	0x3e7f2125	0.24914987
63	0xbeafc5d1	-0.3433061
64	0x3e933048	0.28747773
65	0x3ef74ff5	0.4830319
66	0xbed63601	-0.41838077
67	0x3e1a3cc0	0.15062237
68	0xbdd898f3	-0.10576048
69	0xbedceede	-0.4315099
70	0xbee37821	-0.4442759
71	0x3ed89af3	0.42305717
72	0x3d3bbb4b	0.045832913
73	0x3e15848f	0.14601348
74	0xbec0af8c	-0.37633932
75	0xbee0d640	-0.4391346
76	0xbd9e03aa	-0.077155426
77	0xbe5cb078	-0.21551692
78	0xbf075e68	-0.5287843
79	0xbe425ede	-0.18981501
80	0xbecf56d7	-0.4049594
81	0x3e8e88cf	0.27838752
82	0xbe82bcb8	-0.25534606
83	0xbe6d375b	-0.23165648
84	0x3e492479	0.1964282
85	0xbeb247b6	-0.34820336
86	0xbef5495d	-0.47907534
87	0x3edbcc64	0.42929375
88	0x3ee5a2c3	0.4485074
89	0x3ea8c1db	0.329604
90	0x3f0c29a7	0.54751056
91	0x3e1999d1	0.15000083
92	0xbdf225b8	-0.118236005
93	0xbe7ca770	-0.24673247
94	0x3e54f92c	0.20798177
95	0x3e93a3f7	0.28836033
96	0x3e97f638	0.29680037
97	0x3dccd0d7	0.100007705
98	0x3de1e6a4	0.11030319
99	0xbdbab17d	-0.091158845
100	0x3dad3655	0.08457629
101	0xbeb98be7	-0.3623955
102	0xbeb148b6	-0.34625787
103	0xbdc16a99	-0.0944416
104	0xbdbc61d5	-0.091983475
105	0xbdd28765	-0.10279731
106	0xbe101689	-0.14071096
107	0x3e3c2eb6	0.18377194
108	0x3ef65591	0.48112157
109	0xbe805864	-0.25067437
110	0xbe9f44f4	-0.31107295
111	0xbeb7e987	-0.35920355
112	0xbe9f1edc	-0.3107823
113	0x3d760292	0.060061045
114	0xbe7382ef	-0.23780416
115	0xbeacd827	-0.3375866
116	0x3c9efe8a	0.019408483
117	0xbecc5054	-0.39905035
118	0x3cc15ac0	0.023602843
119	0xbedc43dd	-0.43020526
120	0xbe6a15a9	-0.22859825
121	0xbe9bf245	-0.30458274
122	0x3e3b2342	0.18275169
123	0x3e13670a	0.14394775
124	0x3eec1d48	0.4611609
125	0x3e8c1045	0.27356163
126	0xbc93ec70	-0.018057078
127	0x3ec27882	0.37982565
128	0x3ee0e6c3	0.43926057
129	0xbe7d24dc	-0.24721092
130	0x3e3948e6	0.18094215
131	0x3d8a23ab	0.067450844
132	0x3ccf910c	0.025337718
133	0xbed31643	-0.41227922
134	0xbe752d60	-0.2394309
135	0x3e5907d2	0.2119439
136	0xbed0894e	-0.40729755
137	0xbe826baf	-0.2547278
138	0x3dfaa626	0.122387215
139	0xbd90ef74	-0.07076922
140	0x3e2dcb65	0.1697212
141	0xbebec17a	-0.37256986
142	0xbe8f857b	-0.28031525
143	0xbe72deaa	-0.23717752
144	0xbec66a85	-0.38753143
145	0x3eb77d85	0.3583795
146	0xbe1f916a	-0.15582815
147	0x3ec47b82	0.3837548
148	0x3e8c4bec	0.27401674
149	0x3e5eabdc	0.21745247
150	0xbe153c60	-0.14573812
151	0x3e63887c	0.22220033
152	0x3d80ecbd	0.06295154
153	0x3ea8b762	0.3295241
154	0x3edf4f27	0.43615076
155	0x3edbdffb	0.4294432
156	0x3e72ca5e	0.2371001
157	0x3e87a13a	0.26490194
158	0xbea8da71	-0.32979158
159	0xbe74807c	-0.23877138
160	0xbec4b5f7	-0.38420078
161	0x3e3a6164	0.18201214
162	0xbdc1d701	-0.09464837
163	0xbef096c7	-0.46990034
164	0xbe31e7bc	-0.17373556
165	0x3d96785a	0.07347174
166	0xbd571a73	-0.05251546
167	0x3e178003	0.14794926
168	0xbd9a2817	-0.07527178
169	0xbdce4f19	-0.100736804
170	0xbd915f12	-0.07098211
171	0x3e9d0233	0.3066574
172	0xbea02d50	-0.3128457
173	0xbe0bc3da	-0.1364893
174	0xbe39fec7	-0.18163596
175	0x3e952067	0.29126284
176	0xbe836c52	-0.2566858
177	0xbe6a9a2f	-0.22910379
178	0xbee1a6cd	-0.4407257
179	0x3ecb0a08	0.3965609
180	0x3e1e8497	0.15480267
181	0xbeab881c	-0.3350228
182	0xbe423a7c	-0.18967623
183	0xbd94aec5	-0.07259897
184	0xbec84873	-0.39117774
185	0x3e9628a6	0.29327887
186	0x3e5f1313	0.2178462
187	0xbedbc4f0	-0.4292369
188	0x3ea163f6	0.31521577
189	0x3e6889b9	0.22708787
190	0x3ec9e23b	0.39430413
191	0x3eefeecf	0.46861884
192	0x3ed3979b	0.41326603
193	0x3eb68638	0.35649276
194	0x3e30a54e	0.17250559
195	0xbf00519a	-0.50124514
196	0xbde6ee64	-0.11275938
197	0x3ce396da	0.027781893
198	0xbe929f68	-0.28637242
199	0xbc1a4f82	-0.00941837
200	0xbed14e6a	-0.40880138
201	0xbe5fecb5	-0.2186764
202	0xbeca6ad4	-0.39534628
203	0xbde275b2	-0.11057605
204	0xbea20c7e	-0.31650156
205	0xbef1f721	-0.47258857
206	0xbebdce14	-0.37071288
207	0x3b40ef3a	0.0029439465
208	0x3ea1ee60	0.31627178
209	0xbcca9457	-0.024728937
210	0x3e559e8a	0.20861259
211	0xbebd4dad	-0.36973324
212	0xbeaa2c22	-0.33236796
213	0xbe8fd06b	-0.28088698
214	0xbef543eb	-0.4790338
215	0x3ce1badd	0.027554924
216	0x3e17a352	0.14808396
217	0x3ed190a6	0.4093067
218	0x3ed52718	0.4163139
219	0xbcc89691	-0.024485858
220	0xbed9772a	-0.42473727
221	0x3ebf0e93	0.37315807
222	0x3ea9269b	0.33037266
223	0xbefb4251	-0.49074033
224	0xbe52cccb	-0.20585935
225	0x3de3f9ec	0.11131653
226	0x3f004cac	0.5011699
227	0xbeb8a0c3	-0.3606015
228	0xbd9ac66a	-0.07557376
229	0x3e975af1	0.2956157
230	0xbedd0b26	-0.43172568
231	0xbd03ce9d	-0.032179464
232	0x3e636663	0.22207026
233	0xbea16208	-0.31520104
234	0xbe4e3ee5	-0.2014118
235	0xbdcd0d6e	-0.10012327
236	0x3da9cc6b	0.08290943
237	0xbe7158d6	-0.23569044
238	0xbeab5033	-0.33459625
239	0x3e0b3f3e	0.13598344
240	0xbe7b43cf	-0.24537586
241	0x3e4cdb7d	0.20005603
242	0x3d647f3e	0.05578541
243	0xbec77059	-0.38952902
244	0x3e3451e4	0.17609364
245	0xbb75676d	-0.003744568
246	0xbeea1e10	-0.4572606
247	0xbedcf1ae	-0.43153137
248	0xbe0d2215	-0.13782533
249	0x3eb9b9ce	0.3627457
250	0xbe289659	-0.16463603
251	0x3ef2b712	0.47405297
252	0xbeae5a98	-0.34053493
253	0xbea46342	-0.32106978
254	0xbe392cbf	-0.18083476
255	0x3d38aa98	0.045084566

model.h0-1.bias f4 [64]
0	0x3d854ac7	0.06508403
1	0x3f040f53	0.5158588
2	0x3eb21af6	0.34786195
3	0x3e880781	0.26568225
4	0xbea7c37e	-0.32766336
5	0x3b0a805f	0.0021133644
6	0x3e423b77	0.18967997
7	0xbefa2607	-0.48857138
8	0x3efbd414	0.4918524
9	0xbded9bc7	-0.11601978
10	0x3f01b056	0.5065969
11	0xbeec12b7	-0.46108028
12	0x3e25c90e	0.16189978
13	0xbe1c74a3	-0.15278868
14	0x3e6e26cc	0.23256987
15	0x3e5ba4e1	0.21449615
16	0xbdaed9a5	-0.08537606
17	0x3e16107a	0.14654723
18	0x3ce13405	0.027490625
19	0x3dbfc2b8	0.093633115
20	0x3eaa19cb	0.33222803
21	0xbefb93b9	-0.4913614
22	0xbe29d839	-0.16586389
23	0xbebdf03d	-0.3709735
24	0xbe81d8ce	-0.2536072
25	0x3eeaefef	0.4588618
26	0x3dffe0ed	0.12494073
27	0xbee663df	-0.4499807
28	0xbdc84fb0	-0.09780824
29	0xbc4d11dd	-0.012516466
30	0x3e6303b9	0.22169389
31	0x3e1bcbae	0.15214416
32	0xbe9b8d8c	-0.3038143
33	0x3e3a6aa6	0.18204746
34	0x3e1e2f34	0.15447694
35	0xbdfba76c	-0.122877926
36	0xbe02ffbb	-0.12792866
37	0xbebea18b	-0.37232623
38	0x3f060a31	0.523593
39	0x3d519400	0.051166534
40	0xbe3bb786	-0.18331727
41	0x3e4aeb4e	0.19816324
42	0x3ce9eefa	0.028556336
43	0xbd640eb1	-0.055678073
44	0xbe6a8d2c	-0.22905415
45	0xbde0b772	-0.109724894
46	0xbe9e5985	-0.30927673
47	0xbeb35cbd	-0.3503169
48	0x3c070d56	0.008242926
49	0xbe53e3d2	-0.20692375
50	0x3ed6214f	0.41822287
51	0x3d5013b9	0.05080006
52	0x3e68a1bc	0.22717947
53	0xbda0e3ae	-0.078559265
54	0xbd7d5e64	-0.061857596
55	0x3e8db910	0.27680254
56	0xbe500c0e	-0.20317098
57	0x3e964ef5	0.29357114
58	0xbef413c7	-0.4767134
59	0xbe1681e8	-0.14697993
60	0xbea48d4a	-0.32139045
61	0x3ec3a845	0.38214317
62	0xbed73e70	-0.42039824
63	0xbe3c9edc	-0.18419975

model.c0-1.weight f4 [64, 4]
0	0xbe7806a2	-0.2422128
1	0xbe4a6043	-0.19763283
2	0x3e95e052	0.29272705
3	0xbe195395	-0.1497329
4	0x3ee3c756	0.4448802
5	0x3d2a2f85	0.041549224
6	0x3e9264cb	0.28592524
7	0xbdfb92e6	-0.12283878
8	0xbe6816dc	-0.2266497
9	0x3ed17499	0.4090927
10	0xbe812398	-0.25222468
11	0xbd35039b	-0.04419289
12	0x3e251344	0.1612063
13	0xbee835d4	-0.45353568
14	0xbe8db75b	-0.27678952
15	0x3e6e52b5	0.23273738
16	0x3ea5fc5e	0.32419103
17	0xbed7373f	-0.42034337
18	0xbcccbf1a	-0.024993468
19	0x3d388653	0.045049977
20	0x3e84a036	0.2590348
21	0xbe2b6650	-0.16738248
22	0xbe754130	-0.23950648
23	0x3eb6cdd0	0.35703897
24	0x3e60eeee	0.21966144
25	0xbe0c1379	-0.13679303
26	0x3eed5714	0.46355498
27	0x3ec00a43	0.3750783
28	0xbe966a78	-0.29378104
29	0x3e529196	0.20563349
30	0xbc192d84	-0.009349231
31	0x3ec47dbe	0.38377184
32	0xbca77ece	-0.020446207
33	0x3e3b367f	0.18282507
34	0xbeb8b473	-0.36075172
35	0xbdb9f325	-0.09079579
36	0xbd720014	-0.059082106
37	0x3ed100c2	0.4082089
38	0xbea564fd	-0.3230361
39	0xbe327bb0	-0.17429996
40	0xbf01b1d0	-0.50661945
41	0xbe0a6a9f	-0.13517235
42	0xbe3aea93	-0.18253545
43	0xbe2e8a9e	-0.17045066
44	0xbe74b705	-0.23897941
45	0xbe900e06	-0.281357
46	0xbdf6a12f	-0.12042462
47	0x3ef90dde	0.48643392
48	0x3f027d10	0.5097208
49	0x3eca1f5a	0.39477044
50	0xbe8c40fb	-0.27393326
51	0xbe60a44e	-0.21937677
52	0xbe233242	-0.1593714
53	0x3ed5e3e0	0.41775417
54	0x3c89161a	0.016734172
55	0xbda0692a	-0.078325585
56	0xbefe2ad1	-0.4964204
57	0xbadc7a02	-0.0016821029
58	0xbeb36d61	-0.35044387
59	0x3e4315b7	0.19051252
60	0xbb245ef7	-0.0025081018
61	0xbea31237	-0.31849834
62	0x3d14410b	0.036194842
63	0x3ebfeb97	0.37484428
64	0xbe5672ed	-0.20942278
65	0xbebc8620	-0.3682108
66	0xbeaf11a4	-0.34193146
67	0x3f05c4df	0.52253526
68	0x3dc537a1	0.09629751
69	0xbec2172b	-0.379083
70	0xbdc3a937	-0.095537595
71	0xbee71a08	-0.45137048
72	0xbc4caa85	-0.012491827
73	0x3eb66cc5	0.3562986
74	0xbe52f0d7	-0.20599686
75	0xbe246614	-0.16054565
76	0xbe319e34	-0.17345506
77	0xba749a42	-0.00093308475
78	0xbd5c92f1	-0.05385107
79	0x3eed0469	0.46292427
80	0xbe7e1de7	-0.24816094
81	0x3dd1c8a7	0.102433495
82	0xbe374526	-0.17897472
83	0x3dc17307	0.09445768
84	0xbef74523	-0.48294935
85	0x3e3f8853	0.18704347
86	0xbeef75ac	-0.46769464
87	0x3e922a67	0.28547975
88	0x3e8f9dd9	0.28050116
89	0x3e161e17	0.14659916
90	0xbeb0fc75	-0.3456761
91	0xbe3cdf70	-0.1844461
92	0x3edb7f42	0.42870528
93	0x3efc2b39	0.49251726
94	0xbee0f929	-0.43940094
95	0x3e8af3b1	0.27139047
96	0xbd8442e9	-0.064580746
97	0xbc9e467a	-0.019320715
98	0x3e8e027b	0.27736267
99	0xbd02fe19	-0.031980608
100	0xbef07b25	-0.46968952
101	0x3e1c9cd9	0.15294208
102	0x3e5f9873	0.21835499
103	0x3f003dd6	0.50094354
104	0x3d5650fe	0.052323334
105	0xbe98ee3f	-0.29869267
106	0x3e5fe9c2	0.21866515
107	0x3e08fb4e	0.13377115
108	0xbc3f5002	-0.01167679
109	0xbd68d14b	-0.056840222
110	0xbd3bd507	-0.045857456
111	0x3e83cb3b	0.2574099
112	0x3e5e63cf	0.21717761
113	0xbed8de83	-0.42357263
114	0x3ed096cd	0.40740052
115	0x3ec72a22	0.38899332
116	0x3e3ed224	0.1863485
117	0x3e8e6a87	0.2781565
118	0x3ea90be0	0.33016872
119	0x3ee45d9d	0.4460267
120	0xbe9786a6	-0.29594916
121	0x3c911599	0.017710494
122	0x3df44041	0.11926318
123	0x3edce070	0.43139982
124	0x3d5dd2c0	0.054156065
125	0x3d76cf33	0.060256194
126	0xbede6360	-0.43435192
127	0x3d7091a2	0.058732636
128	0xbef3ffbb	-0.47656044
129	0xbe93491b	-0.28766713
130	0x3eb2547a	0.34830076
131	0x3e263fd3	0.16235285
132	0xbef74901	-0.48297885
133	0x3e3bc876	0.18338189
134	0x3e951bae	0.2912268
135	0x3d9e68ab	0.077348076
136	0x3e81e511	0.25370076
137	0x3ee8f4bb	0.45499215
138	0xbcff8097	-0.031189246
139	0x3ef3360c	0.47502172
140	0xbe744403	-0.2385407
141	0x3e94eb96	0.29085988
142	0x3e8a8703	0.2705613
143	0x3db8adec	0.09017548
144	0x3ebe1b37	0.37130138
145	0x3ebfeed8	0.3748691
146	0x3e8f6de2	0.2801352
147	0x3d8b37e1	0.067977674
148	0x3e8c566c	0.27409685
149	0x3a16489b	0.0005732865
150	0x3e8b1dd9	0.2717121
151	0x38620414	5.3886397e-05
152	0xbedabc3d	-0.4272174
153	0xbdf93be6	-0.12169628
154	0x3e0c6ee8	0.13714182
155	0xbe47f8be	-0.19528481
156	0x3e199d8d	0.15001507
157	0x3edab619	0.42717054
158	0x3ef47370	0.47744322
159	0x3ec15677	0.3776128
160	0xbebc269e	-0.36748213
161	0x3d925f8f	0.071471326
162	0x3dc4a4e4	0.09601763
163	0x3eb45f74	0.35229075
164	0x3eaa6452	0.33279663
165	0x3edaa4c0	0.4270382
166	0x3edf3154	0.43592322
167	0x3e24c296	0.16089854
168	0x3e816fd1	0.25280622
169	0xbeb9307f	-0.36169812
170	0xbedb2eae	-0.4280905
171	0xbee21917	-0.44159767
172	0x3d32528f	0.043535765
173	0xbea802a7	-0.32814524
174	0x3e802685	0.25029388
175	0xbd03090d	-0.031991053
176	0xbddb8174	-0.107180506
177	0xbdd8051d	-0.1054785
178	0x3e743f5a	0.23852292
179	0xbe89a955	-0.26887003
180	0xbe09ec5e	-0.13469073
181	0x3e598fd1	0.21246268
182	0xbe134926	-0.14383373
183	0x3e0d191e	0.13779113
184	0x3efe9d05	0.4972917
185	0x3ea4dc4e	0.3219933
186	0x3e1b41bf	0.15161799
187	0x3eaeb3d0	0.3412156
188	0xbe4ccd02	-0.2000008
189	0xbd1c2ab5	-0.038126666
190	0x3e715255	0.23566563
191	0xbd909612	-0.07059874
192	0x3ea4e4df	0.32205865
193	0x3eb8e39b	0.3611115
194	0x3ef0ab98	0.47005916
195	0x3d585749	0.052817617
196	0x3ed0e80f	0.40802047
197	0xbea933c4	-0.33047307
198	0x3ed173a1	0.4090853
199	0x3e7c7cb1	0.24656941
200	0x3db42773	0.08796587
201	0xbeb8c227	-0.36085626
202	0xbeabafb1	-0.3353248
203	0x3e883967	0.26606295
204	0xbc21a43d	-0.009865818
205	0x3e900333	0.2812744
206	0x3e63cd26	0.22246227
207	0x3ee762ab	0.45192465
208	0xbe1bd13a	-0.15216532
209	0xbdb5e378	-0.08881277
210	0xbedc9b60	-0.43087292
211	0xbe9dfedc	-0.30858505
212	0x3d9e8d24	0.07741764
213	0x3d5f67c9	0.054542337
214	0xbe8b2817	-0.27179024
215	0x3b74d129	0.0037356114
216	0xbeda2303	-0.42604837
217	0xbd684e5b	-0.05671535
218	0xbeecec4f	-0.4627404
219	0xbe529460	-0.20564413
220	0xbe0f7006	-0.14007577
221	0x3dd0b06b	0.10189899
222	0x3e81ce49	0.25352696
223	0xbeaef652	-0.34172302
224	0xbebe361d	-0.3715066
225	0x3d8aee21	0.06783701
226	0x3ca135c6	0.019678961
227	0x3d461d6c	0.048367903
228	0xbf08cff5	-0.5344232
229	0xbdaa3c81	-0.083123215
230	0x3dd762fd	0.105169274
231	0x3ea3507a	0.31897336
232	0xbda705d5	-0.08155409
233	0xbe693662	-0.22774652
234	0xbea850f5	-0.32874265
235	0xbebb50cd	-0.36585084
236	0xbea4c49b	-0.32181248
237	0x3da44570	0.08021057
238	0xbef07547	-0.46964476
239	0x3da5e4c8	0.08100277
240	0xbeab39e6	-0.3344261
241	0xbed0d578	-0.40787864
242	0x3d8c2bb7	0.068442754
243	0xbec6c438	-0.38821578
244	0xbc85e44e	-0.016344216
245	0x3e82eb02	0.25569922
246	0xbed99fe6	-0.42504805
247	0x3e809589	0.25114086
248	0xbd1b4594	-0.03790815
249	0xbe8a224e	-0.26979297
250	0x3f061ff9	0.52392536
251	0x3e94d31d	0.29067317
252	0x3e56d2bd	0.20978828
253	0xbeaa226f	-0.33229396
254	0x3ee8802f	0.45410296
255	0x3eba1ac5	0.3634855

model.c0-1.bias f4 [64]
0	0xbe32363c	-0.17403501
1	0x3d0bfe66	0.03417816
2	0x3e57cca0	0.21074152
3	0x3dde7067	0.10861283
4	0x3e7a7f2b	0.24462573
5	0x3eac2d19	0.33628157
6	0x3e21baca	0.1579391
7	0xbc91334f	-0.017724661
8	0x3e4c1a3a	0.1993188
9	0xbecf442d	-0.40481701
10	0x3e427159	0.18988551
11	0xbdcc85a3	-0.09986427
12	0xbd9fb07b	-0.07797333
13	0xbe8a3518	-0.26993632
14	0x3db3ae11	0.08773435
15	0xbdd8cc76	-0.10585873
16	0x3e8bccc2	0.27304655
17	0xbdf4f333	-0.11960449
18	0xbed5cd09	-0.41757992
19	0x3d9a5581	0.0753584
20	0xbee02d85	-0.4378473
21	0xbdfee676	-0.12446301
22	0x3e70ad8b	0.23503701
23	0x3f0077ff	0.501831
24	0xbec1ee16	-0.37876958
25	0x3ebed032	0.37268215
26	0xbeb5a34b	-0.35476145
27	0x3e8c24d3	0.27371845
28	0x3ed04b85	0.40682617
29	0xbe0635ca	-0.13106456
30	0xbefaa2c5	-0.48952308
31	0xbd563273	-0.052294206
32	0xbeaf47a5	-0.34234348
33	0xbeaabb11	-0.33345845
34	0x3e41a60d	0.18911
35	0x3e7030b4	0.23456079
36	0xbea1dc57	-0.31613418
37	0x3e8375ec	0.25675905
38	0x3ed73c26	0.42038077
39	0xbeced34a	-0.40395576
40	0xbdbc35a7	-0.09189921
41	0x3eb47e15	0.35252443
42	0x3dcba156	0.09942882
43	0x3ee536e7	0.4476845
44	0x3ec87601	0.3915253
45	0x3e4bbdcf	0.19896625
46	0xbe82ff41	-0.25585368
47	0x3ede2092	0.43384224
48	0x3d8b1e5f	0.06792902
49	0xbf031ce0	-0.51215935
50	0xbec62140	-0.38697243
51	0x3b8a55a1	0.0042216335
52	0x3ee5a45b	0.44851956
53	0xbe8a79b9	-0.27045992
54	0x3e71c00f	0.23608421
55	0x3db698b1	0.08915842
56	0x3d1f7b6c	0.038936064
57	0x3e3b159a	0.18269959
58	0x3e3927f7	0.18081652
59	0x3e7c22d0	0.24622655
60	0x3ebe1a72	0.3712955
61	0x3edcc88a	0.4312175
62	0x3eed3ccc	0.46335447
63	0xbf0125cb	-0.5044829
