HW5/state_dict.pt (torch, 242530 bytes, 35 tensors)

conv_layers.0.bias f4 [128]
-2.4849019e-06 5.2330324e-07 4.3237906e-06 4.5582105e-06 -2.3560317e-06 -1.891351e-06 -1.4132815e-05 -3.3579497e-06
1.258905e-05 6.0980906e-06 -1.006754e-05 4.1256662e-06 -4.740619e-06 3.3041538e-06 -4.8506076e-06 2.6580444e-06
1.8418899e-07 -9.844086e-07 9.225437e-06 2.7911544e-06 -8.9434025e-06 -9.3801407e-07 -3.5265923e-06 -4.1612675e-06
-1.6786937e-05 -1.8345553e-06 1.971046e-07 8.266481e-06 -5.165689e-07 -8.8669657e-07 2.2768816e-06 4.3881973e-06
1.1063217e-05 6.8080726e-07 -5.99327e-06 -1.1339584e-05 2.524213e-06 1.1643771e-06 2.1607407e-06 2.6424327e-06
-1.4182895e-06 2.171724e-06 2.0528491e-06 -7.058853e-06 3.7410766e-06 -3.7396967e-06 -1.42329e-06 -8.211718e-07
-6.0356033e-06 1.3978826e-06 -4.643451e-06 -6.8198037e-06 2.466396e-06 7.86662e-06 -3.4365553e-06 -5.173103e-07
2.1708777e-06 -4.0909563e-06 -1.6470244e-06 -7.911642e-07 3.836354e-06 3.4360048e-06 -2.6926434e-06 1.518206e-06
-1.8262873e-06 -1.6571827e-06 -2.3980065e-06 -9.178248e-08 -1.7587832e-06 -5.224127e-06 -1.3383678e-06 -1.3601232e-06
-2.6810712e-06 4.9058235e-06 7.945343e-06 7.735383e-06 3.0383426e-06 -6.002988e-06 -7.762371e-07 -1.6207667e-06
9.316947e-06 -3.3385631e-06 4.215841e-06 1.9702202e-06 1.987883e-06 1.623572e-07 -1.2248822e-06 9.603489e-07
8.044015e-06 1.1857608e-05 1.7056086e-08 1.0216999e-06 3.0570038e-06 -3.0367363e-07 -1.2373133e-05 -9.294339e-07
-5.8656674e-06 -5.02136e-08 -7.16726e-06 2.673822e-06 2.5634097e-06 -3.1913223e-07 1.4691464e-06 -7.1057293e-06
-6.976062e-07 -6.521433e-06 4.033893e-06 -1.6866555e-06 3.0966041e-06 6.365423e-06 -8.557105e-07 -4.4063745e-06
-1.3187359e-06 3.1619254e-06 -6.134097e-06 -2.6514422e-06 -5.3516983e-06 2.0991477e-06 2.2537699e-05 1.3729178e-06
-1.9558656e-06 7.7536373e-07 -4.823514e-06 6.9366847e-06 -6.2368285e-06 1.7682067e-06 4.2467077e-06 8.567679e-07
00000000: 4ac2 26b6 2079 0c35 1415 9136 bbf2 9836
00000010: 511c 1eb6 53da fdb5 fa1b 6db7 2359 61b6
00000020: 8f35 5337 339e cc36 c1e7 28b7 346f 8a36
00000030: 9b11 9fb6 eebc 5d36 67c2 a2b6 db60 3236
00000040: 7cc5 4534 0620 84b5 f3c6 1a37 ab4f 3b36
00000050: 9f0b 16b7 d6cb 7bb5 65aa 6cb6 04a1 8bb6
00000060: acd1 8cb7 d73a f6b5 b3a3 5334 44b0 0a37
00000070: 58aa 0ab5 5305 6eb5 87cc 1836 543e 9336
00000080: 289c 3937 b8c0 3635 cc19 c9b6 243f 3eb7
00000090: a665 2936 b147 9c35 3e01 1136 a654 3136
000000a0: 0e5c beb5 efbd 1136 aec3 0936 16db ecb6
000000b0: 350f 7b36 80f7 7ab6 df07 bfb5 7f6e 5cb5
000000c0: 7085 cab6 e19e bb35 f1ce 9bb6 abd5 e4b6
000000d0: 5c84 2536 e0fa 0337 929f 66b6 4bdd 0ab5
000000e0: 65af 1136 0c45 89b6 540f ddb5 6460 54b5
000000f0: 08ba 8036 1d96 6636 43b3 34b6 29c5 cb35
00000100: c11e f5b5 5d6c deb5 70ed 20b6 f419 c5b3
00000110: 550f ecb5 e94a afb6 f8a1 b3b5 7a8d b6b5
00000120: 74ec 33b6 b49c a436 fd4c 0537 38c7 0137
00000130: 54e6 4b36 466d c9b6 9b5e 50b5 1f89 d9b5
00000140: fc4f 1c37 140c 60b6 cc75 8d36 2038 0436
00000150: 9267 0536 6854 2e34 a266 a4b5 56e5 8035
00000160: c8f4 0637 0af0 4637 bb82 9232 5721 8935
00000170: ed26 4d36 9608 a3b4 3496 4fb7 367e 79b5
00000180: b3d1 c4b6 70aa 57b3 4b7e f0b6 ea6f 3336
00000190: 0b07 2c36 3355 abb4 7c2f c535 c06d eeb6
000001a0: 2243 3bb5 afd2 dab6 e15a 8736 0b61 e2b5
000001b0: 41cf 4f36 9196 d536 fab3 65b5 78da 93b6
000001c0: 6cff b0b5 7731 5436 7ed3 cdb6 6eef 31b6
000001d0: bd92 b3b6 15df 0c36 570f bd37 1945 b835
000001e0: 8441 03b6 9722 5035 abd9 a1b6 abc1 e836
000001f0: f345 d1b6 1f53 ed35 f17e 8e36 a4fc 6535

conv_layers.0.lin.weight f4 [128, 37]
-0.11196149 -0.17971778 -0.19547474 -0.04679768 -1.0742e-41 -0.20689465 -0.07651981 -0.20886151
-0.27885556 0.0057225055 0.34117478 -1.026e-41 -9.991e-42 -9.95e-42 -9.816e-42 9.82e-42
1.2323e-41 -0.089145504 -0.13545911 -0.17529573 -0.032602616 -0.026669715 1.1034e-41 9.826e-42
0.17398414 -1.155e-41 -0.033958632 -0.008724022 0.06927338 1.1826e-41 1.2463e-41 0.051913235
0.11883037 0.10521632 0.06958913 -0.008154191 -0.05580748 -0.16001798 -0.028069967 0.120198615
0.34864044 9.82e-42 -0.08530887 -0.012608927 0.18778951 -0.12140939 0.058976077 -0.30650985
-9.897e-42 1.0695e-41 -1.21e-41 9.812e-42 -9.906e-42 9.966e-42 0.0975901 0.16038488
0.2017202 0.002093648 -0.012608934 -9.98e-42 1.0011e-41 -0.07537407 1.0092e-41 0.10247969
0.0024217027 0.08838954 9.949e-42 1.1255e-41 0.17535663 0.0912621 0.10212926 0.18634364
0.028771663 -0.012608914 0.16977297 -0.19484271 -0.22812207 0.008037549 -9.853e-42 0.12960774
-0.0006457102 0.045307767 -0.22967277 0.12361682 -0.22507401 -1.0028e-41 -1.0143e-41 9.94e-42
-9.965e-42 9.83e-42 9.986e-42 -0.01795202 -0.10647533 -0.032351855 0.11569502 -0.000645777
-9.888e-42 -9.902e-42 0.326173 9.826e-42 -0.15823914 0.1912639 -0.13051078 1.0012e-41
9.974e-42 -0.056574583 -0.15832816 0.04964107 0.24038579 0.059648298 -0.00064577535 0.19631803
-0.31806856 -0.00027406562 -0.1266433 -1.2292e-41 0.061657738 -0.0029800218 -0.36072183 -0.08600644
-0.034588624 0.21963826 1.0098e-41 1.0272e-41 -9.883e-42 -9.839e-42 1.0304e-41 -9.94e-42
0.13881657 0.08540735 0.13337581 -0.060186595 -0.0029800218 1.0592e-41 -1.0398e-41 0.0020242191
9.924e-42 0.13385846 0.11221488 -0.17092523 1.0336e-41 9.829e-42 -0.007939805 0.016971966
-0.19495513 0.18188144 0.004205601 -0.0029800218 0.014887825 0.12989695 0.27703682 -0.16929328
-1.0543e-41 0.08443 -0.0012561878 -0.15234806 -0.2781795 0.01158978 0.23624292 9.846e-42
1.0029e-41 -9.948e-42 9.89e-42 1.015e-41 9.902e-42 -0.2542884 -0.054326054 0.03831563
0.07078715 -0.0012477647 -9.963e-42 -1.0465e-41 -0.015224722 1.0053e-41 0.014406707 0.11290674
-0.058669988 1.0074e-41 -9.962e-42 0.14318739 0.07705553 0.10020925 -0.03719479 -0.018097587
-0.0012548025 0.13463926 0.2484923 -0.14791054 -0.100656144 -9.962e-42 -0.24534985 -0.0018049625
-0.014255671 -0.086230054 0.06320077 0.32673576 1.0074e-41 9.903e-42 -1.0964e-41 9.826e-42
-1.0002e-41 1.0507e-41 0.16949748 -0.026862238 0.14003614 -0.057708703 -0.0018049625 1.094e-41
-1.0049e-41 -0.09673166 -9.84e-42 -0.048600633 -0.12664178 0.1007683 1.0023e-41 -1.0692e-41
0.30501086 -0.092623726 0.13371453 0.118001275 0.06800765 -0.0018049625 0.09192519 -0.097711295
-0.14176005 -0.16242899 9.825e-42 -0.015643653 0.08727251 0.102365054 -0.27551287 -0.1211615
0.11948482 9.948e-42 1.0339e-41 -9.861e-42 9.837e-42 -1.0004e-41 1.0305e-41 0.116142035
-0.060935065 0.04171532 -0.043184176 0.011168476 9.931e-42 9.914e-42 -0.022095773 1.0304e-41
0.008942912 -0.054944552 -0.23128599 9.988e-42 -1.0193e-41 -0.19713958 -0.11387242 0.14299716
00000000: 114c e5bd f007 38be 882a 48be edae 3fbd
00000010: f21d 0080 31dc 53be 6bb6 9cbd cbdf 55be
00000020: 28c6 8ebe db83 bb3b 76ae ae3e 9a1c 0080
00000030: da1b 0080 bd1b 0080 5d1b 0080 601b 0000
00000040: 5a22 0000 eb91 b6bd cbb5 0abe b980 33be
00000050: 528a 05bd 727a dabc c21e 0000 641b 0000
00000060: e628 323e 3220 0080 3518 0bbd 33ef 0ebc
00000070: 34df 8d3d f720 0000 be22 0000 f9a2 543d
00000080: 565d f33d a77b d73d bf84 8e3d 2899 05bc
00000090: 6296 64bd c1db 23be fdf2 e5bc b12a f63d
000000a0: 0081 b23e 601b 0000 6bb6 aebd ac95 4ebc
000000b0: e54b 403e 7ca5 f8bd e690 713d dcee 9cbe
000000c0: 971b 0080 d01d 0000 bb21 0080 5a1b 0000
000000d0: 9d1b 0080 c81b 0000 51dd c73d ef3b 243e
000000e0: bd8f 4e3e 9635 093b b495 4ebc d21b 0080
000000f0: e81b 0000 b85d 9abd 221c 0000 dfe0 d13d
00000100: 6eb5 1e3b 9305 b53d bc1b 0000 601f 0000
00000110: b090 333e a0e7 ba3d 2529 d13d ded0 3e3e
00000120: 8db2 eb3c 9e95 4ebc f7d8 2d3e d984 47be
00000130: d598 69be edaf 033c 771b 0080 e4b7 043e
00000140: e144 29ba a394 393d 572f 6bbe d12a fd3d
00000150: cd79 66be f41b 0080 461c 0080 b51b 0000
00000160: c71b 0080 671b 0000 d61b 0000 1d10 93bc
00000170: bd0f dabd 6183 04bd 83f1 ec3d 5c49 29ba
00000180: 901b 0080 9a1b 0080 2600 a73e 641b 0000
00000190: 7109 22be afda 433e 9ea4 05be e91b 0000
000001a0: ce1b 0000 c0ba 67bd c720 22be 6f54 4b3d
000001b0: b127 763e c651 743d 4049 29ba 9807 493e
000001c0: e2d9 a2be 77b0 8fb9 c8ae 01be 4422 0080
000001d0: d38c 7c3d 784c 43bb 88b0 b8be 2524 b0bd
000001e0: cdac 0dbd dae8 603e 261c 0000 a21c 0000
000001f0: 8d1b 0080 6d1b 0080 b91c 0000 b51b 0080
00000200: ee25 0e3e 0cea ae3d ab93 083e 3886 76bd
00000210: 784c 43bb 871d 0000 fc1c 0080 c3a8 043b
00000220: aa1b 0000 3112 093e ead0 e53d 0607 2fbe
00000230: d01c 0000 661b 0000 f515 02bc cb08 8b3c
00000240: 51a2 47be 213f 3a3e 23cf 893b 784c 43bb
00000250: 10ec 733c b503 053e c5d7 8d3e 385b 2dbe
00000260: 641d 0080 a3e9 ac3d aba6 a4ba 2101 1cbe
00000270: 8b6d 8ebe 10e3 3d3c aae9 713e 721b 0000
00000280: f51b 0000 bb1b 0080 921b 0000 4b1c 0000
00000290: 9a1b 0000 1732 82be ff84 5ebd daf0 1c3d
000002a0: daf8 903d 098c a3ba c61b 0080 2c1d 0080
000002b0: 1d71 79bc 061c 0000 1c0a 6c3c a63b e73d
000002c0: f14f 70bd 151c 0000 c51b 0080 b79f 123e
000002d0: 4acf 9d3d 823a cd3d 9059 18bd 6441 94bc
000002e0: 2f78 a4ba e0de 093e c474 7e3e dc75 17be
000002f0: cf24 cebd c51b 0080 fe3c 7bbe 7e94 ecba
00000300: 9e90 69bc 6299 b0bd 686f 813d e949 a73e
00000310: 151c 0000 9b1b 0000 901e 0080 641b 0000
00000320: e21b 0080 4a1d 0000 bf90 2d3e 320e dcbc
00000330: a265 0f3e f65f 6cbd 7e94 ecba 7f1e 0000
00000340: 031c 0080 401b c6bd 6e1b 0080 7511 47bd
00000350: 62ae 01be 9c5f ce3d f11b 0000 ce1d 0080
00000360: 622a 9c3e 82b1 bdbd 76ec 083e a7aa f13d
00000370: 9847 8b3d 7e94 ecba 4643 bc3d dc1c c8bd
00000380: 8c29 11be c953 26be 631b 0000 1e27 80bc
00000390: eebb b23d c5a4 d13d 0610 8dbe 8523 f8bd
000003a0: 75b4 f43d bb1b 0000 d21c 0000 7d1b 0080
000003b0: 6c1b 0000 e31b 0080 ba1c 0000 e0db ed3d
000003c0: 0c97 79bd afdd 2a3d e4e1 30bd fcfb 363c
000003d0: af1b 0000 a31b 0000 3202 b5bc b91c 0000
000003e0: 4b85 123c 8a0d 61bd 3cd6 6cbe d81b 0000
000003f0: 6a1c 0080 f5de 49be f135 e9bd d96d 123e

conv_layers.1.bias f4 [128]
7.20404e-07 1.0453807e-06 -1.7309663e-08 -4.3897316e-07 -1.8169466e-06 -3.3430508e-06 1.4357962e-06 2.6758287e-06
9.87615e-07 -2.3483492e-06 -2.4065962e-06 3.0001465e-06 -1.10378195e-07 2.083333e-07 -3.7274557e-07 -1.123065e-06
-7.394239e-07 -1.3165611e-06 3.1058728e-06 1.2208601e-06 3.1119774e-07 2.1873666e-06 -1.9592837e-06 -2.7069057e-06
6.419944e-07 -2.7910858e-06 6.3526426e-07 -7.8789685e-07 7.584255e-07 -6.7588036e-07 9.47518e-07 -1.720653e-06
-7.6007734e-07 2.1098633e-07 2.335626e-06 6.4530224e-07 7.835428e-07 -1.6134245e-06 2.3668667e-06 -1.978635e-07
-4.343079e-07 4.435444e-06 -5.832168e-07 3.1054665e-07 4.4749214e-07 1.0015677e-06 1.1700376e-06 -1.6513853e-07
-9.984378e-07 5.497991e-07 -3.2057287e-06 -2.4077183e-06 -2.0465204e-06 -1.6726941e-06 -4.5305663e-07 -8.395095e-07
-2.601571e-08 4.7863896e-06 -2.377393e-06 -5.1124056e-07 6.99567e-07 -4.6691267e-07 7.7479973e-07 4.7973563e-06
8.069582e-07 2.042036e-06 1.0364362e-06 -2.0526937e-07 -3.3746242e-06 9.5105975e-07 -8.5130904e-07 4.0092573e-06
-9.741652e-07 1.0384581e-06 -1.9710127e-07 -4.8612753e-07 -2.5669478e-06 -2.0052414e-06 1.5997732e-06 5.1371535e-07
2.3573496e-06 1.015509e-06 -1.0494208e-07 4.4699524e-07 6.743596e-07 -8.0925093e-07 -1.1448661e-06 3.2233854e-07
2.1919674e-07 -6.421643e-07 1.8893345e-06 -1.1637846e-06 -1.6296393e-06 -1.9832724e-07 1.9795853e-07 -6.081207e-07
1.9101778e-06 3.0510225e-06 -6.58239e-08 2.9469655e-07 3.1152595e-07 -5.0188083e-07 -1.5456303e-07 -7.688001e-08
-4.908189e-08 -6.532912e-07 -6.25803e-07 2.4442215e-07 2.066816e-06 -2.0229861e-07 -4.8276166e-07 -1.4200606e-06
4.136855e-07 -7.77276e-07 -4.5837416e-07 -4.2639954e-07 1.619264e-07 9.961577e-07 -1.3384366e-06 -5.132531e-06
-2.5258427e-07 -6.499245e-07 5.8152267e-07 -1.7022028e-06 9.5684065e-08 3.4840397e-07 -1.4371484e-06 2.0861519e-06
00000000: c961 4135 024f 8c35 5ab0 94b2 03ac ebb4
00000010: cfdd f3b5 2d59 60b6 95b5 c035 6392 3336
00000020: 318e 8435 5598 1db6 0281 21b6 2056 4936
00000030: 0e09 edb3 39b2 5f34 c31d c8b4 38bc 96b5
00000040: d37c 46b5 b2b4 b0b5 7d6e 5036 6fdc a335
00000050: b112 a734 acca 1236 3d7c 03b6 49a8 35b6
00000060: 8555 2c35 7d4e 3bb6 0787 2a35 dc7f 53b5
00000070: 9a96 4b35 256e 35b5 f158 7e35 30f1 e6b5
00000080: 1e08 4cb5 7b8b 6234 c0bd 1c36 d538 2d35
00000090: a754 5235 d88c d8b5 76d6 1e36 4e74 54b4
000000a0: d32a e9b4 2dd4 9436 5a8e 1cb5 35b9 a634
000000b0: da3e f034 9b6d 8635 300a 9d35 ef50 31b4
000000c0: 1002 86b5 e895 1335 0022 57b6 4994 21b6
000000d0: f456 09b6 5581 e0b5 a13b f3b4 a75a 61b5
000000e0: 2779 dfb2 c69a a036 4d8b 1fb6 2f3c 09b5
000000f0: e1c9 3b35 fdab fab4 d5fb 4f35 faf8 a036
00000100: bf9d 5835 e909 0936 ad1b 8b35 0468 5cb4
00000110: 9a77 62b6 544c 7f35 8385 64b5 4287 8636
00000120: 10c0 82b5 2661 8b35 c9a2 53b4 6e7e 02b5
00000130: d443 2cb6 c991 06b6 cab7 d635 40e6 0935
00000140: f532 1e36 a04c 8835 855c e1b3 8ffa ef34
00000150: a405 3535 4d3b 59b5 4da9 99b5 df0d ad34
00000160: 575c 6b34 3261 2cb5 0a95 fd35 5633 9cb5
00000170: fbb9 dab5 c7f3 54b4 6d8e 5434 bc3d 23b5
00000180: 9b30 0036 2bc0 4c36 125b 8db3 c936 9e34
00000190: cd3f a734 fdb8 06b5 f6f5 25b4 3c19 a5b3
000001a0: 1cce 52b3 d45d 2fb5 dbfc 27b5 2039 8334
000001b0: a1b3 0a36 6b37 59b4 2197 01b5 e998 beb5
000001c0: 8118 de34 00a6 50b5 7716 f6b4 e8eb e4b4
000001d0: fddd 2d34 b8b3 8535 55a4 b3b5 1b38 acb6
000001e0: eb9a 87b4 7976 2eb5 ef19 1c35 3e77 e4b5
000001f0: df7a cd33 470c bb34 0be4 c0b5 d1ff 0b36

conv_layers.1.lin.weight f4 [128, 128]
-0.17159775 0.045474995 -0.07612114 -0.08590605 -0.14180936 -0.038296603 0.14190322 0.012471998
0.0036141938 0.047328047 0.10655643 0.013022101 0.073140614 -0.22264345 0.104034916 0.11729783
0.06520927 -0.048010483 -0.08837385 -0.16437446 0.017147383 0.06659899 0.121014476 0.011766278
0.023301657 0.06021711 0.029675076 0.03153034 -0.08064655 -0.2049362 -0.11320344 -0.1040046
-0.15290327 0.079450175 -0.042534426 -0.027545959 -0.2214528 -0.068348646 0.001140671 -0.05828991
-0.052919876 0.04865931 -0.019471832 -0.0139984675 0.064475395 0.05450988 0.13588333 -0.03890125
-0.08464696 0.08254991 -0.17971964 -0.04364665 0.083198704 0.042637512 -0.12506382 0.18149187
0.10255766 0.036587644 -0.01711075 0.08572552 0.12791322 0.025660055 0.12588058 0.028330212
0.060969103 0.1501609 0.04563139 0.048651222 -0.024976455 0.10209551 0.066293806 0.19247559
-0.04751562 0.07705452 0.027292151 -0.0012293122 0.059864108 -0.12398237 -0.03434707 0.036994193
0.16519493 0.08205247 -0.013583775 0.13790658 0.08652225 0.037034493 0.0065878183 -0.19712754
-0.040806912 -0.12886076 0.03747147 -0.07949342 -0.05503206 0.09073349 0.12072978 0.12518105
-0.060028117 -0.10473743 0.098011315 0.12937456 0.05886172 0.072197 0.062878355 0.05666927
0.024601726 -0.13427396 -0.12507963 0.088783234 0.050797015 0.07002819 -0.1491189 0.123953395
-0.094004296 -0.20641173 0.103511095 0.044444103 0.092452906 0.05713943 -0.008004297 0.092770934
-0.04385218 -0.03890544 0.054692015 0.156096 0.09158454 0.06477807 0.068692915 -0.021125006
-0.09998186 0.024745516 -0.06854784 -0.11813873 0.035279784 -0.20199898 -0.22405106 -0.063505426
-0.007424261 0.0023859963 0.17154393 0.07287379 -0.16554539 0.059112012 0.015101267 -0.110649906
0.05932554 -0.10350746 0.051588874 0.018240228 -0.040695913 0.1774284 0.09570028 -0.17816614
-0.10221806 0.11441238 -0.037780926 0.042078625 0.0020544082 0.11285447 0.08368635 0.014597987
-0.06356734 0.07043225 0.04856893 -0.12163434 0.010814281 -0.12662248 -0.14179106 -0.09673829
0.14745364 0.008470257 -0.0053552873 0.033813786 0.006822361 -0.019046985 0.18024653 -0.03055316
-0.041704524 -0.06713528 -0.021539873 0.0010428822 -0.112412326 0.057364866 -0.045647334 -0.008257414
-0.014200937 -0.0032851323 0.03634484 -0.022960156 -0.0873362 -0.030816033 0.053396307 -0.2041976
0.024034727 0.11135648 0.043856665 0.06703928 0.0086602485 0.023119291 -0.023763372 0.09983368
-0.13256669 -0.11252917 -0.086973995 0.10187792 0.1115871 0.024345895 -0.089608 -0.088132896
0.010750637 -0.09068813 0.0767158 -0.031892736 -0.031006537 0.121043354 0.010964136 -0.016483577
0.07992662 -0.06772782 -0.052321345 -0.16741045 0.064497866 0.08550031 0.059628535 -0.1050581
-0.0052843452 -0.049911503 -0.09105308 0.035569176 -0.064090915 -0.09644927 0.071766175 0.17425887
-0.042128798 0.028784882 0.0063854214 0.11102421 -0.096024476 -0.025187274 0.025537012 -0.052884486
0.028773384 -0.09641827 -0.1948636 0.14226703 -0.1030129 -0.059729397 -0.031819604 -0.15270683
0.083022326 0.19666743 0.000997401 -0.02365984 0.09483913 0.058354937 -0.28685203 -0.10600263
00000000: 52b7 2fbe fd43 3a3d 66e5 9bbd 83ef afbd
00000010: 7936 11be e6dc 1cbd 144f 113e 5a57 4c3c
00000020: 1cdc 6c3b 0edb 413d 423a da3d a65a 553c
00000030: bfca 953d a5fc 63be 4210 d53d d839 f03d
00000040: 708c 853d a4a6 44bd 59fd b4bd c751 28be
00000050: ab78 8c3c 0d65 883d 70d6 f73d 59c7 403c
00000060: 1ee3 be3c 37a6 763d 2519 f33c f525 013d
00000070: 052a a5bd ccda 51be 35d7 e7bd 5d00 d5bd
00000080: ad92 1cbe c6b6 a23d 9438 2ebd 10a8 e1bc
00000090: 86c4 62be 60fa 8bbd 9182 953a 67c1 6ebd
000000a0: 83c2 58bd fc4e 473d 6483 9fbc d459 65bc
000000b0: ad0b 843d c045 5f3d 0025 0b3e eb56 1fbd
000000c0: 635b adbd ed0f a93d 6d08 38be d4c6 32bd
000000d0: 1564 aa3d aca4 2e3d bb10 00be 01d9 393e
000000e0: c009 d23d eddc 153d d82b 8cbc dd90 af3d
000000f0: affb 023e 0935 d23c d7e6 003e c314 e83c
00000100: bdba 793d c7c3 193e fbe7 3a3d 8146 473d
00000110: 6c9b ccbc 7317 d13d 0cc5 873d 5218 453e
00000120: bd9f 42bd c3ce 9d3d ca93 df3c df20 a1ba
00000130: 1134 753d 78ea fdbd 83af 0cbd 3987 173d
00000140: dc28 293e 200b a83d 7b8e 5ebc 6237 0d3e
00000150: 9432 b13d 7bb1 173d a0de d73b cddb 49be
00000160: 2625 27bd 13f4 03be af7b 193d 72cd a2bd
00000170: 4c69 61bd 7bd2 b93d 2d41 f73d 762f 003e
00000180: 0be0 75bd 9480 d6bd 28ba c83d c47a 043e
00000190: fd18 713d 05dc 933d 5ec6 803d 091e 683d
000001a0: 8f89 c93c 1d7f 09be e014 00be fcd3 b53d
000001b0: 8810 503d f16a 8f3d a0b2 18be 47db fd3d
000001c0: 5385 c0bd 995d 53be a0fd d33d 050b 363d
000001d0: f357 bd3d 090b 6a3d 7424 03bc b0fe bd3d
000001e0: 589e 33bd 505b 1fbd bc04 603d a1d7 1f3e
000001f0: ad90 bb3d 5daa 843d dfae 8c3d 590e adbc
00000200: 4ac3 ccbd 1cb7 ca3c cf62 8cbd b8f2 f1bd
00000210: 8981 103d d2d8 4ebe a46d 65be 220f 82bd
00000220: 3747 f3bb 605e 1c3b 36a9 2f3e db3e 953d
00000230: bb84 29be 701f 723d 4e6b 773c 6b9c e2bd
00000240: 56ff 723d b8fb d3bd db4e 533d 886c 953c
00000250: c2b0 26bd caaf 353e 82fe c33d 2f71 36be
00000260: b457 d1bd 0a51 ea3d 2cc0 1abd a35a 2c3d
00000270: 40a3 063b 3f20 e73d c063 ab3d 652c 6f3c
00000280: 982f 82bd c93e 903d 37f0 463d 6d1b f9bd
00000290: 622e 313c 53a9 01be ad31 11be b91e c6bd
000002a0: 16fe 163e d5c6 0a3c 687b afbb 5380 0a3d
000002b0: 1d8e df3b 6c08 9cbc 8c92 383e 9f4a fabc
000002c0: 5dd2 2abd 397e 89bd 6374 b0bc 52b1 883a
000002d0: 6f38 e6bd 6cf7 6a3d b3f8 3abd 1b4a 07bc
000002e0: 0cab 68bc 604b 57bb 54de 143d f016 bcbc
000002f0: 52dd b2bd e871 fcbc 16b6 5a3d 2d19 51be
00000300: 7ae4 c43c de0e e43d 0ca3 333d e44b 893d
00000310: b7e3 0d3c ab64 bd3c 67ab c2bc 9a75 cc3d
00000320: 90bf 07be b275 e6bd 6c1f b2bd 5fa5 d03d
00000330: c787 e43d 0b71 c73c 6684 b7bd 057f b4bd
00000340: 7123 303c b3ba b9bd 2c1d 9d3d f5a1 02bd
00000350: 6c01 febc 94e5 f73d eba2 333c 9108 87bc
00000360: 91b0 a33d e2b4 8abd e84e 56bd a56d 2bbe
00000370: 7517 843d c91a af3d 0d3d 743d b328 d7bd
00000380: 4d28 adbb 0170 4cbd 0a7a babd fcb0 113d
00000390: 1942 83bd 3287 c5bd 25fa 923d eb70 323e
000003a0: 3f8f 2cbd 46ce eb3c cc3c d13b a960 e33d
000003b0: 7ba8 c4bd 8b55 cebc ff32 d13c 679d 58bd
000003c0: 29b6 eb3c f176 c5bd 538a 47be 73ae 113e
000003d0: 6df8 d2bd d0a6 74bd 4655 02bd 2e5f 1cbe
000003e0: 9c07 aa3d 3063 493e 39bb 823a 48d2 c1bc
000003f0: 053b c23d 9605 6f3d 45de 92be e817 d9bd

conv_layers.2.bias f4 [128]
1.1376887e-06 -6.022096e-07 -6.513563e-07 -5.035322e-09 2.8448785e-06 4.721713e-07 8.9931433e-07 1.1464222e-06
-3.3321492e-06 6.529986e-07 1.3015968e-07 -6.3951126e-07 6.5534385e-07 1.3593075e-06 4.9661804e-07 -9.1881155e-08
-1.7807401e-06 8.7029974e-07 -3.897593e-07 -1.5077985e-08 6.477543e-07 1.1656181e-06 -3.6223452e-07 2.9253949e-08
-9.0046376e-07 2.7009457e-09 -1.8434062e-06 6.2035137e-06 -1.7907353e-06 3.777166e-09 6.00719e-07 3.801092e-06
7.4603304e-07 1.2260385e-06 -8.4729845e-07 -1.155912e-06 -8.300628e-07 8.738554e-07 -1.6957139e-06 -1.2789724e-06
-2.0706952e-06 -4.898294e-07 -1.2391607e-06 -8.804298e-07 -1.8176652e-06 7.350196e-06 2.8966494e-07 1.1591043e-06
9.2671314e-07 6.873147e-07 1.1145944e-06 -1.5009888e-06 -6.4702044e-07 -1.2192883e-06 1.6682179e-06 -8.623417e-07
-3.479747e-07 1.1219584e-07 6.862257e-07 -7.753752e-07 3.573233e-07 1.2072528e-06 2.2070078e-07 -1.3551102e-06
-1.4868962e-06 1.5704342e-06 2.9820922e-07 3.0173166e-07 -5.2330097e-07 3.8989435e-07 -7.017555e-07 2.9483597e-06
-1.7022789e-07 4.2357215e-06 -2.043353e-06 -8.380319e-07 -9.986369e-07 1.4771693e-08 5.8085715e-07 2.0763616e-06
-1.0756219e-06 -2.115517e-08 -1.6248207e-06 1.3125995e-07 -1.4023854e-06 -4.1865073e-07 1.2712483e-06 4.0785247e-07
6.73842e-07 -1.7372276e-06 1.8932084e-06 2.6763033e-07 1.8037933e-07 3.462644e-07 1.6142495e-07 -2.8687296e-07
5.3348413e-06 4.7440622e-07 1.0526226e-06 -3.8455343e-07 -8.712318e-07 -2.3185356e-07 -8.3653117e-07 2.3953842e-07
-3.5363254e-07 3.327949e-06 -1.091896e-06 -2.545858e-07 -1.1928121e-07 -7.77916e-07 1.2439838e-06 -2.6555651e-06
-1.6426273e-07 -1.2709487e-06 4.6415926e-07 2.5163308e-06 -8.033972e-07 9.4441975e-07 -9.681515e-07 -6.139994e-07
5.041097e-07 6.583208e-08 -5.376631e-07 -2.4359806e-06 3.9764604e-06 2.1383444e-06 1.5494836e-06 6.018793e-07
00000000: b0b2 9835 87a7 21b5 ddd8 2eb5 2903 adb1
00000010: a4ea 3e36 bb7e fd34 6968 7135 c4de 9935
00000020: e39d 5fb6 b949 2f35 05c2 0b34 e1aa 2bb5
00000030: e3ea 2f35 7371 b635 554f 0535 3350 c5b3
00000040: c401 efb5 8b9e 6935 1c40 d1b4 d784 81b2
00000050: 56e1 2d35 5572 9c35 2279 c2b4 1d4a fb32
00000060: 66b7 71b5 8a9b 3931 f46a f7b5 c727 d036
00000070: 3259 f0b5 4ec8 8131 1841 2135 4316 7f36
00000080: 0043 4835 5d8e a435 e871 63b5 d524 9bb5
00000090: 7bd1 5eb5 e392 6a35 4998 e3b5 28a9 abb5
000000a0: 46f6 0ab6 d27c 03b5 3d51 a6b5 ad56 6cb5
000000b0: 80f6 f3b5 b4a1 f636 3f83 9b34 8592 9b35
000000c0: 3ec3 7835 e87f 3835 2c99 9535 9575 c9b5
000000d0: e8ae 2db5 6da6 a3b5 88e7 df35 ac7b 67b5
000000e0: 47d1 bab4 51f0 f033 1235 3835 6123 50b5
000000f0: 24d6 bf34 e408 a235 c5f9 6c34 3be1 b5b5
00000100: 5d91 c7b5 b5c7 d235 9019 a034 affd a134
00000110: f878 0cb5 ac52 d134 4560 3cb5 6fdc 4536
00000120: e3c7 36b4 9220 8e36 8a20 09b6 1df5 60b5
00000130: e708 86b5 98c6 7d32 33ec 1b35 9f57 0b36
00000140: 165e 90b5 b6b8 b5b2 6a14 dab5 76f0 0c34
00000150: 9839 bcb5 ebc2 e0b4 c29f aa35 d1f6 da34
00000160: 12e2 3435 b02a e9b5 251a fe35 d5ae 8f34
00000170: 4bae 4134 37e6 b934 2754 2d34 8503 9ab4
00000180: f001 b336 e5b1 fe34 d647 8d35 9f74 ceb4
00000190: 98de 69b5 6cf3 78b4 fc8d 60b5 e999 8034
000001a0: e3da bdb4 ba55 5f36 438d 92b5 02ae 88b4
000001b0: c513 00b4 fbd1 50b5 f5f6 a635 4336 32b6
000001c0: 3260 30b4 7795 aab5 9031 f934 3cde 2836
000001d0: 09a9 57b5 0884 7d35 6ff1 81b5 b8d1 24b5
000001e0: 2852 0735 925f 8d33 ed53 10b5 d479 23b6
000001f0: 896d 8536 7a80 0f36 daf7 cf35 d590 2135

conv_layers.2.lin.weight f4 [128, 128]
0.022477558 -0.15940061 -0.00055435824 -0.00014064286 0.048229355 0.03983213 0.06968214 0.1285998
-0.15221986 0.03128845 -0.024639897 0.1132261 -0.11212544 -0.033453137 -0.014545857 -0.06761513
-0.020486912 -0.047538176 0.024125159 -0.031177985 -0.14903982 0.07701718 0.09636138 0.011680214
0.056451324 -0.08220451 -0.08880411 0.0304248 0.12061787 -0.00741365 -0.0025355574 0.07379629
0.06314383 -0.056622677 0.04330777 0.021118654 -0.014181254 0.05246622 -0.003686332 -0.07616893
-0.01586444 0.03523901 0.010961059 0.015900454 -0.03847398 -0.029042989 -0.2125418 -0.049177725
0.0437965 -0.008485866 0.02698894 -0.03329928 0.08199857 -0.105630435 -0.04526152 -0.115054674
0.011867759 0.10455808 -0.028571147 0.13374707 0.1392663 -0.0015375543 -0.07324751 0.07737109
0.15360238 -0.089832686 -0.042972073 0.13042112 -0.17796454 0.06369223 -0.018177122 0.052452747
-0.0157854 0.09763039 -0.05990256 0.064992644 -0.02420362 0.019260475 0.006486244 -0.062331356
-0.07993316 -0.003308497 -0.035052843 -0.08600906 0.059057552 -0.27021664 -0.19453393 0.08507951
0.046391796 0.0076354295 0.011459185 -0.20840494 0.038425602 0.0052022436 0.035305463 0.050314713
-0.10441292 -0.05936444 -0.013314237 -0.041882187 -0.04119827 0.060667768 0.07696885 0.009812273
-0.070273854 -0.2248876 0.1007225 -0.008771946 0.0070546214 0.09239968 -0.11900519 0.043674517
0.042949528 -0.045668267 -0.12295671 0.109152354 0.036971755 0.053593878 -0.092529155 -0.04393663
0.030616693 0.09176088 -0.016035782 -0.2622481 0.07881481 0.0483777 -0.18322371 0.05241098
0.03906853 -0.018719345 0.029061329 -0.07671506 -0.18860337 0.03664077 0.11919423 -0.03872347
-0.0064372416 0.041354112 -0.059085675 -0.0009336819 -0.06787794 0.10164247 0.09399777 0.11281538
-0.10553994 -0.13509409 0.06888981 -0.074686445 0.041006006 -0.029718935 -0.052723616 0.0980412
-0.07750763 0.049633868 -0.0514884 -0.017523741 -0.06281405 -0.018034467 0.06984517 -0.0051718266
-0.04017861 -0.0027582392 0.020898916 0.11649501 -0.11977979 -0.01220734 -0.010568149 0.106980704
-0.045601103 -0.024932329 -0.07574834 0.048918862 -0.02887829 0.02526819 0.024080353 0.20284623
0.10605569 -0.019769829 0.063059196 0.07374396 0.021011332 0.042179506 0.032341886 0.0047297343
-0.054049104 -0.14501004 0.034723915 -0.08071983 -0.030888615 -0.06505098 0.0060250065 0.007242642
-0.077834025 -0.019526195 -0.041281376 -0.10310552 0.04873789 -0.048757356 -0.054867133 -0.09944039
-0.13328177 0.020377059 -0.021088505 -0.07072769 0.022977663 0.01941225 -0.027532546 0.025321031
-0.01042276 -0.08093252 -0.19235542 0.14308973 -0.10366641 -0.04278383 0.0056570377 -0.12827843
-0.0018595632 0.038658958 -0.14559935 0.01916038 -0.10929324 -0.097782046 0.026943905 0.11909476
0.10284746 -0.14491233 -0.14179479 0.024230782 -0.14047036 -0.02489087 0.033283737 0.05914139
-0.1095679 -0.053262457 -0.07701533 -0.058964733 -0.024345212 0.048800863 -0.03163295 -0.034309745
0.035686404 -0.035305943 -0.018830625 -0.063182026 -0.06054668 -0.14283647 -0.033232544 -0.00506703
0.0041987747 -0.005503563 -0.08665339 0.109306686 -0.035658438 -0.015407316 -0.0022383097 0.00767913
00000000: db22 b83c ea39 23be 5a52 11ba 8879 13b9
00000010: 258c 453d 0427 233d 83b5 8e3d aaaf 033e
00000020: 86df 1bbe 5128 003d 9cd9 c9bc 16e3 e73d
00000030: 06a2 e5bd 2806 09bd bf51 6ebc cd79 8abd
00000040: 2bd4 a7bc 64b7 42bd 20a2 c53c f968 ffbc
00000050: e59d 18be 2fbb 9d3d 1d59 c53d 5e5e 3f3c
00000060: 8139 673d d75a a8bd eede b5bd 6e3d f93c
00000070: 8006 f73d 34ee f2bb 982b 26bb 8222 973d
00000080: 8d51 813d 2eed 67bd 7d63 313d 0701 ad3c
00000090: 7e58 68bc d2e6 563d 6396 71bb 75fe 9bbd
000000a0: 24f6 81bc c856 103d 0396 333c ab41 823c
000000b0: e496 1dbd 90eb edbc 8fa4 59be 956e 49bd
000000c0: f563 333d 4d08 0bbc e917 dd3c d364 08bd
000000d0: deee a73d c554 d8bd 2564 39bd c9a1 ebbd
000000e0: fd70 423c 8c22 d63d 0a0e eabc fef4 083e
000000f0: d39b 0e3e c387 c9ba ca02 96bd bc74 9e3d
00000100: f149 1d3e 33fa b7bd 7c03 30bd 1d8d 053e
00000110: 563c 36be 1271 823d 30e8 94bc b1d8 563d
00000120: 6250 81bc 71f2 c73d 635c 75bd dd1a 853d
00000130: ac46 c6bc 25c8 9d3c 8f8a d43b 2a4f 7fbd
00000140: ffb3 a3bd 5ed3 58bb 9293 0fbd 8525 b0bd
00000150: 55e6 713d d659 8abe e733 47be 2b3e ae3d
00000160: 5305 3e3d a032 fa3b 4ebf 3b3c 1b68 55be
00000170: 2a64 1d3d 9577 aa3b 769c 103d cd16 4e3d
00000180: 71d6 d5bd 2128 73bd f523 5abc a88c 2bbd
00000190: 84bf 28bd c47e 783d d8a1 9d3d a8c3 203c
000001a0: bdeb 8fbd ef48 66be 9947 ce3d 35b8 0fbc
000001b0: 742a e73b 0b3c bd3d feb8 f3bd 0de4 323d
000001c0: d8eb 2f3d a60e 3bbd bad0 fbbd 458b df3d
000001d0: b26f 173d 4185 5b3d ed7f bdbd e5f6 33bd
000001e0: dccf fa3c 21ed bb3d 795d 83bc 6245 86be
000001f0: a969 a13d b227 463d ff9e 3bbe e5ac 563d
00000200: 5306 203d 5059 99bc 0612 ee3c c91c 9dbd
00000210: 3e21 41be a214 163d 1b1c f43d 809c 1ebd
00000220: 7fef d2bb ee62 293d d203 72bd 55c2 74ba
00000230: 9703 8bbd ed29 d03d e781 c03d c00b e73d
00000240: 5325 d8bd 1b56 0abe 1a16 8d3d 35f5 98bd
00000250: eaf5 273d 2075 f3bc b8f4 57bd d3c9 c83d
00000260: 52bc 9ebd e24c 4b3d 80e5 52bd f38d 8fbc
00000270: a7a4 80bd 05bd 93bc fc0a 8f3d 6d78 a9bb
00000280: 5392 24bd 93c3 34bb 3434 ab3c f094 ee3d
00000290: 1b4f f5bd 4c01 48bc 0826 2dbc b318 db3d
000002a0: 39c8 3abd e23e ccbc f221 9bbd 255f 483d
000002b0: 2a92 ecbc 3cff ce3c 2944 c53c ecb6 4f3e
000002c0: ba33 d93d 56f4 a1bc 2e25 813d 1307 973d
000002d0: f51f ac3c 6bc4 2c3d ed78 043d e3fb 9a3b
000002e0: 9862 5dbd 837d 14be aa3a 0e3d 7050 a5bd
000002f0: 1f0a fdbc 7339 85bd 6b6d c53b af53 ed3b
00000300: 7267 9fbd 66f5 9fbc a916 29bd fd28 d3bd
00000310: 62a1 473d cbb5 47bd 5cbc 60bd 67a7 cbbd
00000320: 047b 08be caed a63c cdc1 acbc aed9 90bd
00000330: a73b bc3c 7006 9f3c ef8b e1bc 0d6e cf3c
00000340: 39c4 2abc f3bf a5bd d2f8 44be 1d86 123e
00000350: 0e4f d4bd 193e 2fbd ac5e b93b 6c5b 03be
00000360: 96bc f3ba db58 1e3d ff17 15be 3bf6 9c3c
00000370: 22d5 dfbd f441 c8bd 77b9 dc3c f4e7 f33d
00000380: b0a1 d23d e663 14be a732 11be a27f c63c
00000390: 76d7 0fbe f0e7 cbbc 8754 083d 3e3e 723d
000003a0: 2365 e0bd bc29 5abd 37ba 9dbd 0185 71bd
000003b0: 9c6f c7bc 6ae3 473d 8d91 01bd 6088 0cbd
000003c0: e82b 123d f79c 10bd af42 9abc 9465 81bd
000003d0: ccff 77bd b943 12be d91e 08bd 5409 a6bb
000003e0: e095 893b 3c57 b4bb 5577 b1bd 2fdc df3d
000003f0: 950e 12bd f86e 7cbc 9bb0 12bb 36a1 fb3b

conv_layers.3.bias f4 [128]
-5.6601785e-08 3.448792e-06 1.6585495e-06 6.4684e-07 -7.260687e-08 1.8744097e-06 2.0563662e-06 -1.0154482e-07
2.0588936e-06 2.6905855e-07 1.9944392e-07 2.9255568e-06 -4.1383007e-07 -1.2021426e-06 1.177273e-06 1.8108694e-06
-5.9885156e-07 3.868974e-06 -1.1137167e-07 -6.6791694e-07 1.3147151e-06 4.626746e-08 -7.2841124e-07 1.0334359e-06
4.3196766e-07 2.513373e-06 -1.4905036e-06 1.2298e-41 -1.4841861e-06 -5.113432e-07 3.4378381e-06 -1.7063933e-06
-1.1186502e-06 -1.5241478e-07 1.5763218e-06 1.0206456e-06 -1.1076586e-06 -1.6419336e-06 1.0451947e-06 1.4327592e-06
2.1137417e-07 5.7785763e-07 -7.6084365e-07 9.684983e-07 -8.7956955e-08 4.7407744e-07 -1.9240324e-06 1.1784673e-06
-3.322386e-07 8.1942795e-07 -4.751725e-07 1.4204413e-07 -9.567691e-07 5.8478525e-07 -7.403999e-07 -1.0162368e-06
3.3619274e-06 -1.0711478e-06 -3.4818018e-07 3.453875e-07 5.021694e-07 -1.2953997e-06 9.4488485e-07 -3.7111765e-09
1.283234e-06 -2.3648927e-06 6.782489e-07 -4.1285254e-08 -1.051281e-06 1.2439076e-06 1.3928457e-06 -6.795595e-07
7.716089e-07 1.5940525e-06 4.784656e-07 2.0136958e-06 -4.7320364e-07 -3.833563e-09 -7.0528097e-07 1.8440529e-06
1.9185973e-06 7.8173827e-07 -3.3505357e-06 1.3824263e-06 2.301906e-06 2.1372026e-07 1.589163e-07 -1.3076726e-06
-1.2108151e-06 8.9486474e-07 -1.0362176e-06 2.0329617e-07 8.274289e-07 1.4809382e-06 1.189489e-06 -4.7774176e-08
1.5331093e-06 1.815138e-06 -1.5805138e-06 1.662465e-06 2.041583e-06 1.2513415e-06 3.6709994e-07 -5.5635775e-07
-1.2666384e-06 -1.7672143e-07 -3.583067e-07 -2.3298323e-06 2.1366998e-06 -5.9699175e-07 1.1460888e-06 3.290853e-06
4.137787e-07 -7.813694e-08 8.8190376e-07 -6.318765e-07 -1.4481509e-06 4.4067218e-07 -8.1109766e-07 -1.2832379e-06
-2.031972e-06 -3.1738867e-07 4.0005198e-06 -9.825429e-07 2.2437157e-06 1.9006458e-06 -2.3594241e-06 1.0241037e-06
00000000: 521a 73b3 cc71 6736 549b de35 82a2 2d35
00000010: 0dec 9bb3 3a94 fb35 1a00 0a36 db10 dab3
00000020: 862b 0a36 2073 9034 ba26 5634 af54 4436
00000030: 5f2c deb4 4e59 a1b5 cb02 9e35 000d f335
00000040: c4c0 20b5 3cd2 8136 392b efb3 e74a 33b5
00000050: 4475 b035 9cb7 4633 0a88 43b5 96b4 8a35
00000060: 2fe9 e734 6bab 2836 500d c8b5 4822 0000
00000070: 3f34 c7b5 3d43 09b5 9cb5 6636 3a07 e5b5
00000080: 8724 96b5 75a7 23b4 0192 d335 1efd 8835
00000090: dcaa 94b5 6960 dcb5 9e48 8c35 3b4d c035
000000a0: 17f6 6234 131e 1b35 c73c 4cb5 59fd 8135
000000b0: d9e2 bcb3 b584 fe34 a01e 01b6 d42b 9e35
000000c0: 875e b2b4 a9f6 5b35 361b ffb4 cb84 1834
000000d0: 566a 80b5 23fa 1c35 e5bf 46b5 a165 88b5
000000e0: 799d 6136 5cc4 8fb5 85ed bab4 b26d b934
000000f0: d2cc 0635 98dd adb5 fea3 7d35 b507 7fb1
00000100: 963b ac35 8cb4 1eb6 e910 3635 9e51 31b3
00000110: bd19 8db5 57f4 a635 d0f1 ba35 f96a 36b5
00000120: 8f20 4f35 3af3 d535 e86f 0035 0823 0736
00000130: 9d0c feb4 60b8 83b1 8a52 3db5 2d81 f735
00000140: 40c1 0036 a5d8 5135 c4d9 60b6 ce8b b935
00000150: 727a 1a36 fa7a 6534 94a2 2a34 4a83 afb5
00000160: 4a83 a2b5 a336 7035 2a14 8bb5 a049 5a34
00000170: 7b1c 5e35 a6c4 c635 88a6 9f35 4330 4db3
00000180: 3cc5 cd35 ab9f f335 0a22 d4b5 dd21 df35
00000190: 2102 0936 c4f3 a735 d515 c534 9d58 15b5
000001a0: 5d01 aab5 d1c0 3db4 4c5d c0b4 375a 1cb6
000001b0: 3964 0f36 f640 20b5 50d3 9935 6dd8 5c36
000001c0: 5025 de34 3dcc a7b3 f7bb 6c35 399e 29b5
000001d0: 165e c2b5 8695 ec34 35ba 59b5 b83b acb5
000001e0: 035d 08b6 9165 aab4 343c 8636 ebdf 83b5
000001f0: be92 1636 b119 ff35 9956 1eb6 ef73 8935

conv_layers.3.lin.weight f4 [128, 128]
0.06257322 0.13390744 0.0014614165 0.010238195 0.04021599 0.112376094 -0.04876155 0.024747578
0.07741711 0.02645667 0.059855014 0.02531898 0.010264481 -0.06964802 0.004832615 -0.0067844633
0.13483527 -0.112714484 0.020362152 0.041284457 -0.008622439 0.11156358 0.10257514 0.026596833
0.13197729 -0.05714738 0.08908702 0.011445594 -0.0033756502 0.015577575 0.016449237 -0.0040656542
0.042693056 -0.114037536 -0.121279344 -0.005511924 0.002457864 0.06082202 -0.07137606 -0.05118582
0.03981065 -0.008043631 -0.08084478 0.037734468 -0.057084497 -0.026367683 0.0557418 0.153897
0.18699113 -0.08580837 -0.12053978 0.030834902 0.04956478 -0.2002783 -0.026886178 -0.010500391
0.010716946 -0.042738717 0.1421017 -0.02636198 -0.18817708 -0.025180684 -0.055949837 0.061654806
-0.07478115 -0.09170987 -0.050200492 -0.030778566 0.09106339 0.039806087 0.04916416 0.05428726
0.012863942 0.08084665 0.16064164 -0.037857033 -0.078285694 0.005925934 0.047006793 0.054095063
-0.10089393 0.009540437 -0.07676482 -0.05876035 -0.009110181 -0.027298864 -0.051764224 -0.06355107
-0.08360772 -0.08481871 0.11034085 0.12521029 0.10668379 0.07564412 -0.043238528 0.019779352
0.10906561 -0.017729446 0.045532465 -0.037239358 0.039981507 0.03711524 0.118048675 0.07134388
0.042197105 -0.022095053 -0.02578616 -0.05599635 -0.050758805 0.09192859 -0.052901946 -0.041934766
-0.031783942 0.031992376 -0.022837238 0.051714934 -0.06612891 -0.034781214 0.02432774 -0.048492633
-0.07508607 -0.04172831 0.011090994 -0.06647873 -0.012173984 0.022203965 -0.04270093 -0.0074354955
0.03125378 -0.035589695 0.0106489565 0.03821805 -0.012047298 0.023537427 0.010295469 -0.004582694
-0.043009695 -0.015031872 -0.023520704 -0.018193213 -0.006107312 -0.018612232 -0.11120296 0.033678427
-0.010371124 0.0014646702 -0.004496595 -0.009290593 -0.04470449 0.010338413 -0.043647572 0.00308882
0.031793695 0.019969534 -0.040280465 0.013175775 -0.038156137 0.0002185414 -0.029571353 0.007991679
0.05609624 -0.003175339 -0.051302712 0.0077696596 -0.019030996 -0.009124718 -0.046092704 -0.0039815423
0.020768698 0.028787442 0.08252793 0.007452222 -0.08339283 -0.05888912 -0.07908826 0.026605908
-0.015001206 0.00030774402 0.020488 0.033088084 -0.04780962 0.011361876 -0.064944945 -0.10445629
-0.0068007377 0.065114655 0.02157094 -0.1262766 0.063219406 -0.011540768 -0.002543961 -0.050323848
-0.014255764 -0.05287343 -0.06452745 -0.04246823 0.03809824 0.022696467 -0.00864045 -0.19292185
0.038482092 -0.0042590457 0.009329033 -0.00038291857 0.010293425 -0.014073346 -0.06550445 -0.08456615
0.014685075 -0.11727839 -0.052085564 -0.011730263 -0.11570733 -0.01888888 -0.026568783 0.031230455
-0.041529477 -0.03976306 0.058258485 0.01228047 0.022022797 -0.044559468 -0.0323863 -0.03993903
-0.07471095 -0.010662023 -0.030392377 0.09207233 0.017062427 0.01580407 0.025862087 -0.04799802
0.042454835 -0.049143847 0.04160932 -0.07696263 -0.07482117 0.0033565247 0.039498027 -0.084784225
0.04506002 0.026527528 0.07621919 0.02002121 0.0110504795 -0.0017787301 -0.17133783 0.007088429
-0.03516066 -0.030831717 0.040341765 -0.0064768894 -0.02069422 -0.009680547 0.036972903 -0.006819151
00000000: 6326 803d 081f 093e 008d bf3a 1abe 273c
00000010: 86b9 243d 7025 e63d 31ba 47bd 6fbb ca3c
00000020: dd8c 9e3d a9bb d83c 882a 753d c069 cf3c
00000030: 5b2c 283c 9fa3 8ebd ea5a 9e3b 3450 debb
00000040: 4212 0a3e dad6 e6bd 87ce a63c e419 293d
00000050: 2145 0dbc 727b e43d ea12 d23d 9ae1 d93c
00000060: 0e25 073e 5f13 6abd 4173 b63d 4d86 3b3c
00000070: 033a 5dbb 1639 7f3c 8dc0 863c 2e39 85bb
00000080: eade 2e3d 838c e9bd 4e61 f8bd 5f9d b4bb
00000090: 1d14 213b 8320 793d 9d2d 92bd 39a8 51bd
000000a0: 7e10 233d 6fc9 03bc f391 a5bd 758f 1a3d
000000b0: 6fd1 69bd 0a01 d8bc 8451 643d 2d97 1d3e
000000c0: 9a7a 3f3e 4cbc afbd 8fdd f6bd 7a99 fc3c
000000d0: 7004 4b3d c115 4dbe 6740 dcbc d509 2cbc
000000e0: 2196 2f3c cb0e 2fbd 1c83 113e 14f5 d7bc
000000f0: 7eb1 40be b947 cebc a82b 65bd c089 7c3d
00000100: dc26 99bd 62d2 bbbd 089f 4dbd 5523 fcbc
00000110: 717f ba3d b50b 233d 5c60 493d 515c 5e3d
00000120: 49c3 523c ee92 a53d 3e7f 243e fa0f 1bbd
00000130: 4054 a0bd 562e c23b 328a 403d c992 5d3d
00000140: 7aa1 cebd 7e4f 1c3c e036 9dbd b1ae 70bd
00000150: de42 15bc dea1 dfbc b906 54bd 1027 82bd
00000160: 863a abbd 6fb5 adbd 62fa e13d 2037 003e
00000170: 087d da3d 4eeb 9a3d e21a 31bd 4f08 a23c
00000180: ca5d df3d 583d 91bc 4080 3a3d 4c88 18bd
00000190: a6c3 233d 2606 183d 81c3 f13d bd1c 923d
000001a0: dfd6 2c3d af00 b5bc 7f3d d3bc 6e5c 65bd
000001b0: 77e8 4fbd 0e45 bc3d b6af 58bd cac3 2bbd
000001c0: e12f 02bd 700a 033d 2915 bbbc 0ad3 533d
000001d0: 986e 87bd bf76 0ebd f84a c73c 36a0 46bd
000001e0: bac6 99bd 4eeb 2abd 00b7 353c 0026 88bd
000001f0: 6475 47bc 17e5 b53c 2ce7 2ebd 75a5 f3bb
00000200: f703 003d 80c6 11bd f678 2e3c 888a 1c3d
00000210: 0862 45bc 90d1 c03c 54ae 283c 6c2a 96bb
00000220: ef2a 30bd 3e48 76bc 7eae c0bc ef09 95bc
00000230: d91f c8bb ae78 98bc 61be e3bd 64f2 093d
00000240: a6eb 29bc 2dfa bf3a 2c58 93bb 9237 18bc
00000250: 0e1c 37bd 7262 293c ccc7 32bd cd6d 4a3b
00000260: 1b3a 023d 2697 a33c 21fd 24bd 35df 573c
00000270: 9c49 1cbd 4328 6539 9f3f f2bc 88ef 023c
00000280: 2cc5 653d 5919 50bb cb22 52bd a198 fe3b
00000290: e4e6 9bbc d77f 15bc b4cb 3cbd 9977 82bb
000002a0: 1e23 aa3c a4d3 eb3c 6704 a93d c531 f43b
000002b0: dcc9 aabd b835 71bd 07f9 a1bd a2f4 d93c
000002c0: 9ec7 75bc b458 a139 73d6 a73c 5f87 073d
000002d0: 05d4 43bd 2927 3a3c db01 85bd 2eed d5bd
000002e0: b9d8 debb d55a 853d 8ab5 b03c a74e 01be
000002f0: 2d79 813d 7d15 3dbc 95b8 26bb 6120 4ebd
00000300: 0291 69bc cf91 58bd f826 84bd 2bf3 2dbd
00000310: e60c 1c3d f1ed b93c ad90 0dbc 4e8d 45be
00000320: 669f 1d3d 778f 8bbb cdd8 183c 76c2 c8b9
00000330: c1a5 283c e493 66bc 3227 86bd 0531 adbd
00000340: ab99 703c a72f f0bd ac57 55bd 4a30 40bc
00000350: f7f7 ecbd dabc 9abc c7a6 d9bc 03d7 ff3c
00000360: d01a 2abd 97de 22bd 73a0 6e3d 0634 493c
00000370: 2769 b43c fd83 36bd 7fa7 04bd 1c97 23bd
00000380: 0e02 99bd c4af 2ebc 6ff9 f8bc 6b90 bc3d
00000390: 81c6 8b3c 8977 813c badc d33c 9299 44bd
000003a0: 1fe5 2d3d 0f4b 49bd 896e 2a3d 959e 9dbd
000003b0: d73b 99bd 24f9 5b3b afc8 213d 5aa3 adbd
000003c0: db90 383d 4250 d93c cf18 9c3d 8503 a43c
000003d0: 120d 353c 4724 e9ba 2f73 2fbe 0d46 e83b
000003e0: a004 10bd cc92 fcbc 683d 253d 163c d4bb
000003f0: ed86 a9bc 289b 1ebc e670 173d 2f73 dfbb

edge_proj_layers.0.weight f4 [1, 6]
0.076967776 -0.023122957 0.8225268 0.13562988 0.06597787 -0.058639105
00000000: 48a1 9d3d 5b6c bdbc 1e91 523f 8fe2 0a3e
00000010: 681f 873d 8f2f 70bd

edge_proj_layers.1.0.weight f4 [16, 6]
2.270899e-11 -7.49504e-10 9.86e-42 -1.9472637e-10 -1.3179579e-08 -2.0146291e-09 0.17795293 -0.07592032
-0.16884138 0.456866 0.25478014 0.35362473 -9.676132e-18 1.1002651e-31 9.963e-42 -6.2959285e-31
5.5379317e-24 -2.74529e-29 -1.8936643e-35 9.826e-42 9.918e-42 9.836e-42 -1.4707093e-38 -9.223485e-38
9.817e-42 -9.825e-42 9.843e-42 -9.839e-42 8.821e-42 -9.853e-42 0.009111004 0.047803894
-0.047806412 0.066258416 0.03946032 0.12130123 -3.159e-42 -1.4344e-41 -7.476e-42 9.23e-43
-2.0973e-41 2.0833e-41 0.1037711 0.14549889 -0.15245652 0.2477935 0.11794941 0.38741016
0.23486039 -0.019402664 -0.012547348 -0.019151837 -0.24417834 0.25109938 0.16754025 0.053425834
-0.14930499 0.3234231 0.16467232 0.2957801 0.20106448 0.027623534 -0.13916187 0.14362961
0.29907107 0.1633702 -0.008817955 0.007391821 -0.018107357 0.04386057 0.018870126 0.04727414
-0.009581111 0.012292035 -9.833e-42 -0.0023779613 0.0018334803 0.023364069 -1.0634387e-05 3.0700173e-07
-4.808515e-16 -8.7879476e-07 -1.6295633e-05 1.0808911e-05 0.027710097 -0.06600969 -0.010180939 0.037636388
-0.03919523 0.09509927 -0.0029841322 0.14997096 -0.0020788957 -9.932e-42 0.04975005 -0.15133348
00000000: 19c0 c72d a805 4eb0 7c1b 0000 9a1a 56af
00000010: 676c 62b2 bb71 0ab1 4b39 363e 1d7c 9bbd
00000020: c1e4 2cbe 57ea e93e 8b72 823e 4d0e b53e
00000030: 3e7e 32a3 94d2 0e0c c61b 0000 8750 4c8d
00000040: 053d d618 e733 0b90 725e c985 641b 0000
00000050: a61b 0000 6b1b 0000 6425 a080 4f16 fb81
00000060: 5e1b 0000 631b 0080 701b 0000 6d1b 0080
00000070: 9718 0000 771b 0080 5246 153c 04ce 433d
00000080: a8d0 43bd 7eb2 873d 25a1 213d c76c f83d
00000090: ce08 0080 fc27 0080 d714 0080 9302 0000
000000a0: 773a 0080 133a 0000 f185 d43d a9fd 143e
000000b0: 901d 1cbe 94bd 7d3e 768f f13d a05a c63e
000000c0: 3e7f 703e 56f2 9ebc 6493 4dbc 50e4 9cbc
000000d0: e309 7abe 1990 803e ac8f 2b3e 0cd5 5a3d
000000e0: 68e3 18be b697 a53e dc9f 283e 7d70 973e
000000f0: d9e3 4d3e c04a e23c 7380 0ebe a413 133e
00000100: d81f 993e 854a 273e 2f79 10bc 1737 f23b
00000110: e155 94bc 24a7 333d 8695 9a3c 87a2 413d
00000120: 18fa 1cbc 8864 493c 691b 0080 92d7 1bbb
00000130: 6451 f03a 0166 bf3c 586a 32b7 ffd1 a434
00000140: 9498 0aa6 51e6 6bb5 9bb2 88b7 eb57 3537
00000150: 4900 e33c 1730 87bd f4cd 26bc 9d28 1a3d
00000160: 2d8b 20bd 68c3 c23d 6e91 43bb fd91 193e
00000170: 153e 08bb b01b 0080 b5c6 4b3d 2af7 1abe

edge_proj_layers.1.0.bias f4 [16]
-2.4764187e-08 0.4125129 -3.1557354e-21 -2.02503e-40 -1.14608e-40 0.08796696 -6.662e-42 0.37301219
0.012551304 0.32486075 0.48729992 0.032657877 -0.014148464 -1.5607548e-05 0.0102109695 -0.04833507
00000000: 06b9 d4b2 e434 d33e cd70 6e9d 7f34 0280
00000010: 7b3f 0180 0628 b43d 9212 0080 74fb be3e
00000020: fca3 4d3c 2654 a63e 607f f93e 44c4 053d
00000030: f6ce 67bc f4ec 82b7 e94b 273c fffa 45bd

edge_proj_layers.1.2.weight f4 [1, 16]
3.7813094e-10 0.59989613 2.319286e-10 -5.1371786e-29 -2.2788631e-33 0.15267383 -3.125e-42 0.53759986
0.3926451 0.5158652 0.46669394 0.058841843 -0.021559885 0.00013780786 0.11420788 0.18517123
00000000: 33e1 cf2f cb92 193f 1902 7f2f 323e 8290
00000010: 0f52 3d89 8756 1c3e b608 0080 25a0 093f
00000020: c708 c93e be0f 043f 82f2 ee3e 2504 713d
00000030: 5b9e b0bc 8480 1039 d2e5 e93d 879d 3d3e

edge_proj_layers.2.0.weight f4 [16, 6]
-4.266926e-07 -5.2193285e-09 3.947786e-23 6.366372e-07 -3.0502528e-07 -1.9684995e-07 0.6300999 0.26657665
-0.10416564 -1.1677e-41 -0.555376 -0.46257767 -1.0082e-41 -9.846e-42 -9.969e-42 9.987e-42
-9.883e-42 -9.836e-42 -1.1287975e-11 -5.4551483e-14 -9.833e-42 -1.7596005e-09 -4.9529686e-10 -1.8202521e-10
-0.2552728 0.27478996 -0.040383358 0.25824022 0.1824154 0.14545916 0.12770617 -0.032606132
0.034421723 -0.10188608 0.3835413 0.23699328 0.10109707 -0.045419425 0.05204786 -0.14772211
0.31929702 0.28513905 0.11319262 0.124108106 -0.09356873 0.25379795 -0.10824324 -0.19890837
-7.7642125e-35 9.816e-42 9.909e-42 -9.827e-42 6.739e-42 -3.8871968e-21 -0.28918773 0.2429848
-0.11248768 0.15362436 0.11567704 0.029728804 0.24730653 -0.15117858 0.09038285 -0.30070817
0.3411478 0.44649643 0.12147239 -0.05450545 9.875e-42 -0.09230501 0.042028323 0.29946935
0.13338067 0.19242431 -0.13380648 0.37685338 -0.23461501 -0.17618538 0.049711917 -0.039599318
0.10192335 -0.16739337 0.20014647 0.37406355 9.613424e-33 -9.826e-42 -9.882e-42 -4.4179475e-33
-6.203498e-32 -2.2355044e-31 0.090784654 0.23114248 -0.19624934 0.2763772 -0.37610182 -0.33953694
00000000: 2f14 e5b4 b355 b3b1 39e7 3e1a 60e5 2a35
00000010: 5bc2 a3b4 b45d 53b4 3a4e 213f bc7c 883e
00000020: cc54 d5bd 8d20 0080 1f2d 0ebf fbd6 ecbe
00000030: 1b1c 0080 721b 0080 ca1b 0080 d71b 0000
00000040: 8d1b 0080 6b1b 0080 8594 46ad 94ad 75a9
00000050: 691b 0080 70d6 f1b0 6b25 08b0 8b23 48af
00000060: 1eb3 82be 45b1 8c3e 0569 25bd 1038 843e
00000070: 1acb 3a3e 3ff3 143e 68c5 023e 028e 05bd
00000080: cbfd 0c3d a6a9 d0bd 865f c43e 5eae 723e
00000090: fb0b cf3d b809 3abd 2330 553d 7744 17be
000000a0: e67a a33e bffd 913e 88d1 e73d 642c fe3d
000000b0: f6a0 bfbd cef1 813e a2ae ddbd a3ae 4bbe
000000c0: 7e68 ce86 5d1b 0000 9f1b 0000 651b 0080
000000d0: c912 0000 a9da 929d 6a10 94be 02d1 783e
000000e0: f15f e6bd b44f 1d3e 15e8 ec3d d289 f33c
000000f0: ec3d 7d3e 8fce 1abe a51a b93d 6cf6 99be
00000100: edaa ae3e 2e9b e43e 84c6 f83d 1b41 5fbd
00000110: 871b 0000 690a bdbd e425 2c3d 0c54 993e
00000120: f194 083e e10a 453e 9104 09be edf2 c03e
00000130: eb3e 70be f169 34be b99e 4b3d e532 22bd
00000140: 30bd d03d 2b69 2bbe 32f3 4c3e 4285 bf3e
00000150: bba9 470a 641b 0080 8c1b 0080 ad83 b789
00000160: 510d a18b b017 918c 4eed b93d 9db0 6c3e
00000170: 96f5 48be 5081 8d3e 6b90 c0be c9d7 adbe

edge_proj_layers.2.0.bias f4 [16]
-2.4921442e-07 0.37696442 -9.88e-42 -9.136488e-11 -0.06610234 -0.12358385 -0.09772692 0.1963078
-8.859963e-38 0.15139136 -0.24254473 -0.116547436 0.35769323 -0.04166135 -1.049333e-31 0.6267886
00000000: c5cb 85b4 7b01 c13e 8b1b 0080 dbe9 c8ae
00000010: aa60 87bd 8819 fdbd 0d25 c8bd e904 493e
00000020: ee30 f181 5606 1b3e a55d 78be 6cb0 eebd
00000030: 9123 b73e 17a5 2abd 1236 088c 3875 203f

edge_proj_layers.2.2.weight f4 [1, 16]
-1.5264889e-06 0.9488661 9.826e-42 -1.0200201e-06 0.42825112 -0.40136102 -0.42364895 0.39942172
8.216749e-11 0.38587427 -0.7743431 -0.32357132 0.56836534 -0.3671558 -1.5503018e-30 0.8577799
00000000: c2e1 ccb5 e4e8 723f 641b 0000 a0e7 88b5
00000010: bb43 db3e 317f cdbe 84e8 d8be 0181 cc3e
00000020: 2fb0 b42e 5091 c53e 593b 46bf 24ab a5be
00000030: 6480 113f d8fb bbbe 048d fb8d 7797 5b3f

edge_proj_layers.3.0.weight f4 [16, 6]
-9.94e-42 -9.865e-42 -1.0015e-41 -9.827e-42 -9.956e-42 -9.925e-42 0.02787977 -0.007825317
-0.0027777662 0.022082899 -0.05359707 0.092163876 0.027282236 -0.0028620972 -0.054957166 0.118531615
-0.02942739 0.18606997 -6.226823e-21 -1.7804167e-25 9.934e-42 -1.2771086e-20 -1.4150724e-22 -2.3644642e-19
0.06254865 0.034899738 -0.04745276 0.13454305 -0.07073046 0.09843287 0.05402198 0.019690482
-0.019347155 -0.0009765776 -0.38337335 0.26075444 0.06906114 0.0074250996 -0.019916654 0.054942165
-0.084667556 0.13870136 0.020210749 -0.009149962 -0.0012969543 0.020424673 -0.031456444 0.058881972
0.10476505 0.0033261066 -0.03574125 0.051423274 -0.034998223 0.12252498 0.060169965 0.027878815
-0.057428427 0.12895702 -0.064884424 0.20542642 -1.0723e-41 -9.998e-42 -1.0155e-41 -1.0185e-41
-9.822e-42 -9.903e-42 -1.1144898e-28 9.844e-42 9.832e-42 -3.6863973e-34 -1.1362274e-31 -7.42347e-30
-3.5871e-13 1.6682029e-13 -9.822e-42 -5.6028485e-12 7.332269e-11 -9.046024e-12 -9.85e-42 -9.986e-42
-1.0136e-41 -9.84e-42 -1.035e-41 -9.83e-42 0.16188517 0.10029836 -0.06707471 0.09086788
-0.026577068 0.14179383 -9.883e-42 -9.9e-42 -9.959e-42 -9.834e-42 -9.847e-42 -9.858e-42
00000000: b51b 0080 801b 0080 eb1b 0080 651b 0080
00000010: c11b 0080 ab1b 0080 1e64 e43c c235 00bc
00000020: 2f0b 36bb 32e7 b43c 9a88 5bbd 6ac0 bc3d
00000030: ff7e df3c 0692 3bbb c41a 61bd b4c0 f23d
00000040: b611 f1bc 2089 3e3e 233e eb9d a867 5c96
00000050: b11b 0000 2f3d 719e 5f12 2b9b c692 8ba0
00000060: 8219 803d 07f3 0e3d d35d 42bd a7c5 093e
00000070: 22db 90bd 2c97 c93d 2746 5d3d ef4d a13c
00000080: ed7d 9ebc 8200 80ba 8349 c4be 9b81 853e
00000090: ed6f 8d3d 404e f33b 4028 a3bc 090b 613d
000000a0: 2f66 adbd bb07 0e3e 0391 a53c b9e9 15bc
000000b0: 91fe a9ba a551 a73c 79d8 00bd 392e 713d
000000c0: 0f8f d63d cffa 593b 6b65 12bd 36a1 523d
000000d0: 4c5a 0fbd 60ee fa3d c874 763d 1d62 e43c
000000e0: 123a 6bbd 4f0d 043e 20e2 84bd 4e5b 523e
000000f0: e41d 0080 df1b 0080 4f1c 0080 641c 0080
00000100: 611b 0080 9b1b 0080 4347 0d91 711b 0000
00000110: 681b 0000 cd00 f587 a27d 138c dc90 168f
00000120: 8fef c9aa add2 3b2a 611b 0080 f921 c5ac
00000130: 013d a12e ac23 1fad 751b 0080 d61b 0080
00000140: 411c 0080 6e1b 0080 da1c 0080 671b 0080
00000150: 3ac5 253e 3a69 cd3d 775e 89bd f018 ba3d
00000160: 27b8 d9bc 6732 113e 8d1b 0080 991b 0080
00000170: c31b 0080 6a1b 0080 731b 0080 7b1b 0080

edge_proj_layers.3.0.bias f4 [16]
-9.909e-42 0.045976408 0.18442635 -1.7752155e-23 0.13630664 0.121991076 0.10309965 0.026521608
0.07495502 0.1827014 -1.1358e-41 -5.254588e-31 -1.715266e-10 -9.84e-42 0.22357363 -9.883e-42
00000000: 9f1b 0080 c251 3c3d 43da 3c3e 35b0 ab99
00000010: f893 0b3e 75d6 f93d e925 d33d d843 d93c
00000020: 0482 993d 1316 3b3e a91f 0080 6985 2a8d
00000030: 7298 3caf 6e1b 0080 7cf0 643e 8d1b 0080

edge_proj_layers.3.2.weight f4 [1, 16]
9.93e-42 0.11356582 0.2681614 -2.4857392e-16 0.22583655 0.47909304 0.20319098 0.072438985
0.18038356 0.28507012 -9.83e-42 1.32362385e-11 -1.7895359e-06 9.847e-42 0.3257492 9.836e-42
00000000: ae1b 0000 3295 e83d 734c 893e 094b 8fa5
00000010: b241 673e af4b f53e 4c11 503e e45a 943d
00000020: 78b6 383e b6f4 913e 671b 0080 b8da 682d
00000030: fc2f f0b5 731b 0000 99c8 a63e 6b1b 0000
